results/run002/_actor_net.pt (torch_old, 541483 bytes, 6 tensors)

FC1.weight f4 [400, 33]
-0.38488972 -0.019138878 0.3203544 -0.019611489 -0.15453717 0.061226305 0.16954494 0.11751274
0.054189254 -0.13840704 0.062253155 -0.1283114 0.11694309 0.47588018 0.15008372 -0.0860925
0.17089757 -0.052533593 0.003414593 0.07065707 0.018728979 0.04197487 -0.10466971 0.3026763
0.05677917 0.018476201 -0.29824075 -0.088564634 0.17449786 -0.09736089 -0.090245806 -0.0015035197
-0.9223026 0.26357722 -0.120787375 -0.13102582 -0.057615593 0.07411913 -0.18471134 -0.11174782
-0.056467656 -0.2275204 0.163761 0.031183401 0.010495745 0.076173216 0.07035652 0.28188077
0.33774948 -0.2416653 -0.24390407 -0.26199484 -0.21728465 -0.12113771 0.051216632 0.012717784
0.05514262 0.05979686 0.09090173 -0.2690809 0.030513657 -0.32722074 -0.061254524 -0.1087119
-0.11325921 -1.3781922 0.36808902 0.10011212 0.4485448 0.15761545 0.10140913 0.27381453
0.22318104 -0.06844927 0.13431293 0.08610204 0.07429291 -0.118318535 0.0069415704 0.08631448
-0.2540699 -0.63788545 0.23042277 0.15084773 -0.16244859 -0.17121883 0.017527165 0.035554197
0.24263848 -0.08840773 0.031974234 -0.040478427 -0.15487197 -0.11697746 0.14676741 0.045776166
0.063803434 -0.05649377 -0.5866352 -0.7715925 -0.2563223 -0.2298616 0.11071088 -0.17970195
0.4236654 -0.08939827 -0.065284416 -0.037588738 0.05365189 0.06107365 -0.02972785 0.027712232
0.29912764 0.20561442 0.050430838 -0.11353505 0.17898017 0.04723838 -0.068519324 -0.12185562
-0.20564665 -0.2093909 -0.24399787 0.16117133 0.14300525 -0.105308995 -0.11259707 -0.10199351
-0.062493864 0.040462833 -0.11419254 -0.04634751 0.52032286 0.12457638 0.10260394 0.025122903
-0.07755655 -0.338457 -0.072048195 0.12978195 -0.04276481 0.15549967 0.10781921 0.0029103656
-0.01560589 -0.5814176 -0.153794 0.054879036 -0.16513959 -0.04619528 -0.12578958 -0.030263342
0.031916067 0.15156297 -0.0036718184 -0.17976439 0.012272997 0.10816788 0.29039046 0.11877176
0.09591754 -0.087638274 -0.05362722 0.058724754 0.581735 0.08721756 0.3483131 0.2728845
-0.14177012 0.23213352 0.15259725 0.16833581 -0.23347527 -0.07230914 0.098690756 0.26475814
-0.10598493 0.31538227 0.18506294 -0.024157016 0.22384186 -0.02943087 -0.075133316 -0.17290665
0.2658748 0.32613704 0.0031828033 -0.43056688 -0.1630272 0.12730375 -0.016651 -0.0082579795
0.15226215 -0.3941748 -0.10625498 -0.12241928 -0.05024521 0.23300599 0.24763185 0.40022227
-0.17495565 -0.13809744 0.06761165 0.2163734 -0.23154369 -0.030298823 0.057841163 0.14657237
0.16433658 0.025177484 -0.24211031 -0.16087312 0.47914118 -0.37880525 0.048885744 -0.058180623
0.01248511 0.056128368 0.16716683 -0.17490095 -0.12636079 0.020808026 0.06421719 -0.06694519
0.12209379 0.054190494 0.19730493 -0.022150405 -0.20498219 0.07929652 -0.6598088 -0.19915107
-0.21056826 -0.25116625 -0.1545841 0.02172256 0.02214586 -0.016047386 0.10797153 -0.19746237
0.11151665 0.106010504 0.007965584 -0.022754574 0.25260746 0.6049057 0.07623518 -0.15592287
0.33242166 -0.077166446 0.0104685575 0.11025668 -0.039139614 -0.029517833 0.03890078 0.029812817
00000000: 4410 c5be 23c9 9cbc 7e05 a43e 46a8 a0bc
00000010: fe3e 1ebe 6fc8 7a3d 309d 2d3e 85aa f03d
00000020: 8df5 5d3d 93ba 0dbe 2afd 7e3d 1064 03be
00000030: dc7f ef3d 91a6 f33e 8caf 193e 4451 b0bd
00000040: c6ff 2e3e 772d 57bd 5dc7 5f3b a7b4 903d
00000050: 846d 993c d7ed 2b3d 135d d6bd 63f8 9a3e
00000060: 4691 683d 675b 973c 03b3 98be 6061 b5bd
00000070: 91af 323e 2565 c7bd cbd2 b8bd c011 c5ba
00000080: 061c 6cbf 98f3 863e 5f5f f7bd a22b 06be
00000090: 54fe 6bbd c5cb 973d f824 3dbe 0bdc e4bd
000000a0: a14a 67bd 1cfb 68be f7b0 273e 5574 ff3c
000000b0: 58f6 2b3c b400 9c3d 1417 903d ad52 903e
000000c0: 80ed ac3e 1c77 77be fdc1 79be 3024 86be
000000d0: de7f 5ebe 0c17 f8bd 88c8 513d 415e 503c
000000e0: 3add 613d 8ded 743d b02a ba3d f9c4 89be
000000f0: c7f7 f93c 7a89 a7be 06e6 7abd 58a4 debd
00000100: 72f4 e7bd 9a68 b0bf 2a76 bc3e 9507 cd3d
00000110: aaa7 e53e f265 213e 97af cf3d 6b31 8c3e
00000120: 9289 643e 222f 8cbd 5489 093e 4456 b03d
00000130: e226 983d fd50 f2bd 1d76 e33b a5c5 b03d
00000140: 7315 82be 764c 23bf f2f3 6b3e d477 1a3e
00000150: ec58 26be fd53 2fbe 2195 8f3c 47a1 113d
00000160: 3976 783e 1d0f b5bd 6af7 023d b5cc 25bd
00000170: c296 1ebe e191 efbd 324a 163e ca7f 3b3d
00000180: 60ab 823d 0366 67bd b92d 16bf 1687 45bf
00000190: ad3c 83be d760 6bbe 63bc e23d ca03 38be
000001a0: acea d83e 7116 b7bd d6b3 85bd a6f6 19bd
000001b0: 16c2 5b3d 5d28 7a3d d287 f3bc c304 e33c
000001c0: 4227 993e 968c 523e 9190 4e3d 1085 e8bd
000001d0: 9446 373e 087d 413d dc53 8cbd 708f f9bd
000001e0: 0995 52be 916a 56be 94da 79be 190a 253e
000001f0: f86f 123e 3eac d7bd 4b99 e6bd f9e1 d0bd
00000200: 91f9 7fbd 5bbc 253d c7dd e9bd e3d6 3dbd
00000210: e133 053f e721 ff3d 0422 d23d 8cce cd3c
00000220: f8d5 9ebd 3c4a adbe 018e 93bd 8fe5 043e
00000230: 272a 2fbd 4e3b 1f3e 51d0 dc3d d5bb 3e3b
00000240: d9af 7fbc c9d7 14bf 2d7c 1dbe d7c8 603d
00000250: 5a1a 29be 4337 3dbd fcce 00be d4ea f7bc
00000260: 6cba 023d 5333 1b3e e4a2 70bb 2814 38be
00000270: ae14 493c 1f87 dd3d 0fae 943e 9c3e f33d
00000280: 6a70 c43d b27b b3bd 37a8 5bbd 5e89 703d
00000290: 96ec 143f 1f9f b23d 1856 b23e 84b7 8b3e
000002a0: 302c 11be 69b4 6d3e 7442 1c3e 3960 2c3e
000002b0: 2414 6fbe d016 94bd 611e ca3d 618e 873e
000002c0: a10e d9bd c979 a13e 2481 3d3e efe4 c5bc
000002d0: cd36 653e 0219 f1bc 7fdf 99bd 710e 31be
000002e0: be20 883e 6ffb a63e 9496 503b 4373 dcbe
000002f0: 9af0 26be ea5b 023e ae67 88bc 7a4c 07bc
00000300: 9cea 1b3e 48d1 c9be 369c d9bd f6b6 fabd
00000310: eccd 4dbd 1f99 6e3e 3493 7d3e efe9 cc3e
00000320: 9327 33be 6a69 0dbe fa77 8a3d fd90 5d3e
00000330: ca19 6dbe 3d35 f8bc dbea 6c3d 1117 163e
00000340: d947 283e 0341 ce3c c4eb 77be ecbb 24be
00000350: fe51 f53e c3f2 c1be 6b3c 483d ce4e 6ebd
00000360: 598e 4c3c dce6 653d c82d 2b3e 3c19 33be
00000370: b964 01be 9875 aa3c 4d84 833d 8f1a 89bd
00000380: 4f0c fa3d daf6 5d3d 4e0a 4a3e c474 b5bc
00000390: dae6 51be 3766 a23d 3be9 28bf 42ee 4bbe
000003a0: 359f 57be dd98 80be 4b4b 1ebe 83f3 b13c
000003b0: 3c6b b53c cf75 83bc 2d20 dd3d 9333 4abe
000003c0: d762 e43d 091c d93d 1582 023c cd67 babc
000003d0: c455 813e 1adb 1a3f 3121 9c3d 3faa 1fbe
000003e0: 2c33 aa3e 7109 9ebd 5084 2b3c 41ce e13d
000003f0: dc50 20bd 62cf f1bc 6d56 1f3d 023a f43c

FC1.bias f4 [400]
-0.10098093 0.11071492 0.3008279 0.22978221 -0.10686533 -0.2162901 0.036570817 -0.025569977
-0.15470618 0.079180874 -0.1776618 -0.29836693 -0.4991506 0.049022473 -0.36078665 0.219096
0.17026818 -0.07502865 -0.5286953 -0.11575031 -0.073177844 0.1379438 -0.20915869 -0.05247971
-0.040332623 -0.29186535 -0.10932247 -0.21281897 -0.013392926 -0.4787184 0.15671933 -0.3583528
-0.19287196 -0.1717783 -0.32470757 -0.19052918 -0.017908107 -0.18256831 -0.19730201 -0.20022383
-0.043867085 -0.08671663 0.1622939 -0.1469085 -0.36431795 -0.06629744 -0.17352869 -0.41839805
-0.19187276 -0.11842893 0.089765586 -0.12338162 -0.4730506 -0.32350695 -0.22161233 -0.37346575
-0.253608 -0.2879402 -0.37254974 -0.1880213 -0.057876233 0.025492772 -0.11934814 -0.1721964
-0.24088617 -0.2694803 -0.24445683 -0.34977296 -0.22490406 -0.4068837 -0.29984775 -0.3346763
-0.28580973 -0.14996299 -0.28849584 -0.028290223 -0.06336863 -0.18345827 -0.10207089 -0.16058199
-0.018298544 0.14027974 -0.10597956 0.030474052 0.078307696 -0.45587087 -0.26055044 -0.44295385
-0.17456335 -0.24511483 -0.13174564 -0.24556217 -0.12169655 -0.18701734 0.004557777 -0.03283055
-0.1235004 -0.19089514 -0.13286704 -0.39109072 0.03783394 0.09654532 -0.37425038 -0.13239741
-0.07301902 0.33369437 -0.25163743 0.08712913 -0.21542162 -0.053090703 -0.021073308 -0.07417651
0.03374947 -0.28373897 -0.46702823 -0.40100536 -0.20090894 -0.14817902 -0.11008267 -0.20114976
-0.16359483 -0.18716708 -0.2557002 -0.21251355 -0.36216232 -0.4464466 -0.4227899 -0.013316103
-0.08467358 -0.21963261 -0.17287257 0.005764445 -0.2715874 -0.28400046 -0.37837073 -0.050887402
-0.2822743 -0.24417308 -0.023055809 -0.3273779 0.32833192 0.0259305 -0.2329905 -0.18420441
-0.26822078 -0.2703867 -0.5547358 -0.09403243 -0.10323663 -0.36610705 0.027103327 -0.083351
-0.13826343 0.11052913 -0.20374492 0.09684369 -0.22885694 -0.3105173 -0.01958766 -0.21325485
-0.30459788 -0.35677233 -0.1118603 -0.58390474 -0.38489318 -0.32840863 0.0005600597 -0.05634122
-0.20664626 -0.22703277 -0.13030481 -0.39261612 -0.18673475 -0.24405076 -0.32626554 -0.2636591
-0.34839153 -0.2974389 -0.28899908 -0.120851114 0.24290602 -0.043264415 -0.078522705 0.37490696
-0.10322401 -0.48747122 0.04137044 -0.3103563 -0.4519754 0.055274937 -0.13211834 -0.11596486
-0.30196542 -0.097392835 -0.121460974 0.12279583 -0.27538908 -0.2877217 0.12102159 -0.65912473
-0.26391676 -0.072763175 -0.08334645 0.06891415 -0.17700064 -0.38051617 0.15886495 -0.11557022
-0.27174518 -0.30172926 0.1373568 -0.1828938 -0.40802258 -0.30307254 -0.08815738 -0.0935514
-0.22601272 0.3192911 0.019725945 -0.4057635 -0.2039106 -0.11517243 0.13748862 -0.29887953
-0.17173675 -0.0924441 -0.14224683 -0.37964693 -0.39756453 -0.11582618 -0.28204143 -0.051037986
-0.12649551 -0.13854729 -0.38917744 -0.24075396 -0.43668783 -0.330298 -0.2424206 -0.3028202
-0.472219 -0.16418217 -0.2906401 -0.0041181594 -0.12589742 -0.23318875 -0.08001059 -0.16663256
-0.18916854 -0.17372844 -0.20010851 -0.26960635 -0.33831054 0.08200678 -0.16784543 -0.3920789
00000000: 17cf cebd 81be e23d 1d06 9a3e 074c 6b3e
00000010: 36dc dabd 277b 5dbe 48cb 153d 2178 d1bc
00000020: 4c6b 1ebe 9529 a23d faec 35be 8dc3 98be
00000030: ab90 ffbe cacb 483d 07b9 b8be b45a 603e
00000040: c85a 2e3e 9fa8 99bd 9358 07bf 800e edbd
00000050: 44de 95bd 2441 0d3e b22d 56be f7f4 56bd
00000060: d233 25bd 606f 95be 76e4 dfbd 37ed 59be
00000070: 016e 5bbc 941a f5be 087b 203e 057a b7be
00000080: 3a80 45be a7e6 2fbe 1240 a6be 151a 43be
00000090: 06b4 92bc 30f3 3abe 8a09 4abe 7a07 4dbe
000000a0: f9ad 33bd 7d98 b1bd 5f30 263e 2f6f 16be
000000b0: e287 babe f4c6 87bd 81b1 31be 4538 d6be
000000c0: 4b7a 44be de8a f2bd 05d7 b73d 81af fcbd
000000d0: b033 f2be b4a2 a5be 58ee 62be e736 bfbe
000000e0: e8d8 81be e66c 93be d7be bebe a888 40be
000000f0: a10f 6dbd 38d6 d03c cc6c f4bd 4154 30be
00000100: ddaa 76be 52f9 89be e452 7abe 7115 b3be
00000110: 404d 66be 0f53 d0be a585 99be b15a abbe
00000120: a755 92be e68f 19be bab5 93be e6c0 e7bc
00000130: 6ac7 81bd 7cdc 3bbe 8b0a d1bd 9b6f 24be
00000140: d4e6 95bc 7ea5 0f3e d00b d9bd b8a4 f93c
00000150: c95f a03d e867 e9be de66 85be d9ca e2be
00000160: bcc0 32be 62ff 7abe 54e8 06be a674 7bbe
00000170: 0a3c f9bd 7981 3fbe 6859 953b 5479 06bd
00000180: c7ed fcbd 047a 43be 4c0e 08be 0b3d c8be
00000190: c3f7 1a3d 8db9 c53d bf9d bfbe 3093 07be
000001a0: ff8a 95bd fdd9 aa3e 9fd6 80be c270 b23d
000001b0: 7c97 5cbe a375 59bd eea1 acbc dbe9 97bd
000001c0: e23c 0a3d 3c46 91be 531e efbe 9350 cdbe
000001d0: 13bb 4dbe 3ebc 17be 0673 e1bd 34fa 4dbe
000001e0: 6785 27be baa8 3fbe 23eb 82be 279d 59be
000001f0: 576d b9be a694 e4be eb77 d8be c92b 5abc
00000200: 5869 adbd 5fe7 60be 8205 31be abe3 bc3b
00000210: 810d 8bbe 8268 91be cfb9 c1be 4f6f 50bd
00000220: 4286 90be 8208 7abe 89df bcbc 139e a7be
00000230: 1f1b a83e 336c d43c 1095 6ebe 15a0 3cbe
00000240: 3c54 89be 2070 8abe 2a03 0ebf 1394 c0bd
00000250: ba6d d3bd 6272 bbbe cc07 de3c eeb3 aabd
00000260: ee94 0dbe 195d e23d 82a2 50be fc55 c63d
00000270: 7959 6abe 20fc 9ebe 4d76 a0bc 7b5f 5abe
00000280: 41f4 9bbe ddaa b6be 0317 e5bd c87a 15bf
00000290: b810 c5be 2d25 a8be f8d0 123a 0dc6 66bd
000002a0: 149b 53be 477b 68be a06e 05be fb04 c9be
000002b0: 6537 3fbe 71e8 79be 470c a7be 53fe 86be
000002c0: 6060 b2be e949 98be b0f7 93be ca80 f7bd
000002d0: 5bbc 783e 0736 31bd 83d0 a0bd cef3 bf3e
000002e0: 1c67 d3bd d495 f9be 0d74 293d 05e7 9ebe
000002f0: 5269 e7be f967 623d 084a 07be fc7e edbd
00000300: 369b 9abe e575 c7bd 88c0 f8bd 617c fb3d
00000310: ccff 8cbe 4250 93be 2bda f73d 66bc 28bf
00000320: 1920 87be dc04 95bd 8bb1 aabd dd22 8d3d
00000330: a83f 35be 04d3 c2be 7ead 223e 14b0 ecbd
00000340: 2f22 8bbe 427c 9abe 43a7 0c3e 8348 3bbe
00000350: 56e8 d0be 532c 9bbe db8b b4bd e097 bfbd
00000360: e16f 67be 207a a33e 4e98 a13c 3cc0 cfbe
00000370: f1cd 50be 86df ebbd d1c9 0c3e bd06 99be
00000380: c2db 2fbe 5553 bdbd 27a9 11be 1561 c2be
00000390: 948d cbbe 4736 edbd bc67 90be 350d 51bd
000003a0: 0a88 01be 57df 0dbe 4442 c7be 3588 76be
000003b0: 8c95 dfbe d21c a9be 1b3d 78be 400b 9bbe
000003c0: b0c6 f1be 5f1f 28be c7ce 94be a0f1 86bb
000003d0: 41eb 00be 08c9 6ebe 98dc a3bd baa1 2abe
000003e0: 66b5 41be dee5 31be 3fe9 4cbe d809 8abe
000003f0: 0a37 adbe 2cf3 a73d acdf 2bbe 91be c8be

FC2.weight f4 [300, 400]
-0.044931665 -0.205621 0.11304239 -0.09746644 0.19164161 -0.18033893 0.19921762 -0.12583536
-0.12132391 -0.10156844 0.0861879 -0.14143296 -0.065230645 -0.32470182 -0.08257429 -0.3044749
-0.32113206 -0.32571274 0.012929362 0.037447147 -0.11287241 0.2835894 -0.4616969 -0.0864068
-0.063431144 0.025531288 0.10935176 -0.058475647 -0.07899297 -0.19121522 0.20047593 -0.10837887
0.02852519 -0.115456656 -0.0024296877 0.19504413 -0.054761972 -0.059873533 0.038044345 -0.28234267
-0.0050580413 0.11814587 -0.049078792 -0.2079393 -0.005888746 -0.1978849 -0.18693472 -0.182325
-0.45580357 -0.3222987 -0.28140008 0.16659084 0.10921895 -0.038281173 -0.074855156 0.010487789
0.06132887 0.009055282 0.14545497 -0.19940443 -0.06065265 -0.19735412 -0.048358712 -0.3590558
-0.03126491 -0.12447983 -0.36108044 -0.068837404 -0.12281624 -0.04700913 -0.2843398 0.049669404
0.029831955 -0.020340981 -0.106992885 -0.079274654 -0.20969833 -0.32595125 0.022791255 -0.29229352
-0.44201416 0.16584334 -0.34031302 -0.060095266 -0.12626144 0.19186233 -0.17093684 0.28612512
-0.018850818 0.034068394 -0.06421988 -0.13968094 -0.16196728 -0.35020208 -0.10891737 0.027125126
-0.26662216 -0.13220534 -0.1471961 -0.10174695 -0.18566051 -0.3829994 0.17007361 -0.20449287
-0.15055881 -0.055178463 -0.046958644 -0.31241196 -0.05513802 -0.3160302 -0.07423148 -0.049308147
0.015115144 -0.35485983 -0.2869344 -0.2418441 -0.25151762 0.14846486 -0.045697916 -0.08189926
-0.2993901 0.29706064 0.03622943 -0.09039885 0.0769155 0.039614923 -0.05456905 0.029599635
-0.13701414 0.015503529 0.06338907 -0.30845755 0.17920531 -0.13769019 0.031947833 0.08256703
-0.106777065 -0.3925055 -0.18854822 -0.22411281 -0.47055712 -0.07545139 -0.19272274 0.061287854
-0.16067807 -0.2793447 -0.14714159 0.0225942 0.06336336 -0.07248411 0.03650804 -0.16424853
-0.20418166 -0.2819962 -0.16239677 -0.059950653 -0.25106952 -0.17399986 0.16599296 0.17501557
-0.111569025 0.011357406 -0.22908753 -0.10430087 -0.26986238 -0.2462416 -0.52360326 -0.07245458
-0.14982234 -0.14474732 0.2730795 -0.037359707 0.22815824 -0.2016455 0.07494769 -0.2565615
-0.51393306 0.0057546175 -0.042906743 0.027110845 -0.30975524 -0.19703653 -0.3103816 -0.12124704
0.05499817 0.06897222 -0.025156524 -0.080349624 0.24726866 -0.0029448671 -0.15883842 -0.21524118
-0.037817672 0.09301988 -0.08014899 -0.30161113 -0.19640048 0.13270718 -0.2519811 0.2719041
-0.115641974 -0.21861756 -0.02480664 -0.046477597 -0.28918257 -0.0033337516 -0.10262813 -0.23982574
-0.045323554 -0.12595874 -0.040159088 0.022474278 -0.16070852 0.065007485 0.00053029705 -0.17980272
-0.4442495 -0.17659816 -0.05932611 0.06282989 0.12260156 -0.20836884 -0.15250993 0.064392425
0.021197878 -0.032860428 -0.11038993 -0.09775906 -0.09848616 -0.27197158 -0.24328063 0.117634565
-0.19706255 -0.21231937 -0.18960159 0.10509853 -0.26332474 -0.01731121 -0.080884136 -0.19399962
0.05504655 0.31084332 -0.053816628 -0.35556874 -0.030403705 1.7695003e-05 0.032800928 0.09282421
0.039711785 0.075034626 0.110962406 0.05677463 -0.056464136 -0.39908916 -0.17209598 0.16232216
00000000: 440a 38bd 508e 52be c582 e73d 7c9c c7bd
00000010: b33d 443e c5aa 38be b4ff 4b3e fcda 00be
00000020: ac78 f8bd 1d03 d0bd 4883 b03d cdd3 10be
00000030: a597 85bd 513f a6be b61c a9bd 22e4 9bbe
00000040: 6c6b a4be d2c3 a6be add5 533c 2e62 193d
00000050: a629 e7bd a132 913e 8963 ecbe 0cf6 b0bd
00000060: 30e8 81bd fe26 d13c d1f3 df3d 2984 6fbd
00000070: 11c7 a1bd eccd 43be 9049 4d3e bef5 ddbd
00000080: a9ad e93c 8a74 ecbd 653b 1fbb a6b9 473e
00000090: 174e 60bd f33d 75bd 63d4 1b3d 388f 90be
000000a0: edbd a5bb 76f6 f13d d806 49bd 0aee 54be
000000b0: 62f6 c0bb 57a2 4abe d16b 3fbe 68b3 3abe
000000c0: 165f e9be 5604 a5be ac13 90be ca96 2a3e
000000d0: 2fae df3d b8cc 1cbd a94d 99bd fad4 2b3c
000000e0: fb33 7b3d 9b5c 143c 26f2 143e ad30 4cbe
000000f0: ea6e 78bd 3317 4abe c913 46bd 29d6 b7be
00000100: a20f 00bd 48ef febd 89df b8be a0fa 8cbd
00000110: 1587 fbbd a58c 40bd fc94 91be 2572 4b3d
00000120: 2562 f43c 21a2 a6bc 161f dbbd c05a a2bd
00000130: 29bb 56be 15e3 a6be bab4 ba3c 7fa7 95be
00000140: ae4f e2be d6d2 293e 823d aebe 7426 76bd
00000150: ae4a 01be 8f77 443e 110a 2fbe fe7e 923e
00000160: 086d 9abc 4d8b 0b3d b685 83bd 8508 0fbe
00000170: c0da 25be b04d b3be 1210 dfbd 8335 de3c
00000180: b382 88be d660 07be 93ba 16be b460 d0bd
00000190: ca1d 3ebe 7f18 c4be c727 2e3e 9466 51be
000001a0: 172c 1abe d002 62bd b557 40bd 76f4 9fbe
000001b0: 68d8 61bd b6ce a1be ad06 98bd 57f7 49bd
000001c0: 82a5 773c 30b0 b5be 11e9 92be fba5 77be
000001d0: ebc6 80be 2c07 183e bd2d 3bbd cdba a7bd
000001e0: a949 99be 5518 983e 5065 143d 0823 b9bd
000001f0: e085 9d3d 4243 223d cc83 5fbd ef7a f23c
00000200: 6f4d 0cbe 8402 7e3c 21d2 813d 26ee 9dbe
00000210: 9981 373e a8fe 0cbe bbdb 023d e718 a93d
00000220: efad dabd 7bf6 c8be c912 41be d47d 65be
00000230: ddec f0be 4286 9abd 1c59 45be f908 7b3d
00000240: cb88 24be 4506 8fbe 49ac 16be 7917 b93c
00000250: a6c4 813d 8d72 94bd 7489 153d c430 28be
00000260: ff14 51be ce61 90be 574b 26be d18e 75bd
00000270: 2f8c 80be 052d 32be 0ffa 293e 4837 333e
00000280: 4d7e e4bd 6a14 3a3c ec95 6abe b29b d5bd
00000290: 672b 8abe c226 7cbe dd0a 06bf 1163 94bd
000002a0: 076b 19be a438 14be 14d1 8b3e 7e06 19bd
000002b0: 50a2 693e 287c 4ebe 2d7e 993d 075c 83be
000002c0: 1e91 03bf 3b91 bc3b fbbe 2fbd 9017 de3c
000002d0: 3d98 9ebe f2c3 49be 56ea 9ebe 5e50 f8bd
000002e0: c345 613d 4f41 8d3d 0e15 cebc 588e a4bd
000002f0: ff33 7d3e acfe 40bb 8aa6 22be 2f68 5cbe
00000300: b4e6 1abd 3581 be3d 2725 a4bd c66c 9abe
00000310: 351d 49be 64e4 073e ab03 81be 0437 8b3e
00000320: b3d5 ecbd 48dd 5fbe 4b37 cbbc 4b5f 3ebd
00000330: bd0f 94be 127b 5abb b22e d2bd e194 75be
00000340: 31a5 39bd 54fb 00be db7d 24bd fa1b b83c
00000350: c690 24be a522 853d a203 0b3a 341e 38be
00000360: ac74 e3be 26d6 34be efff 72bd f5ac 803d
00000370: 8716 fb3d a45e 55be 902b 1cbe 2de0 833d
00000380: 2ca7 ad3c a898 06bd 1e14 e2bd e735 c8bd
00000390: 1db3 c9bd dc3f 8bbe 8f1e 79be 64ea f03d
000003a0: c4ca 49be 406a 59be eb26 42be e63d d73d
000003b0: 80d2 86be 3dd0 8dbc 95a6 a5bd d6a7 46be
000003c0: 7e78 613d db26 9f3e d36e 5cbd 1b0d b6be
000003d0: 3111 f9bc bb6f 9437 445a 063d 9f1a be3d
000003e0: d3a8 223d c1ab 993d 4240 e33d 848c 683d
000003f0: f046 67bd 6a55 ccbe ee39 30be c837 263e

FC2.bias f4 [300]
-0.13366798 0.16307282 -0.12371135 -0.029847251 -0.069567405 -0.25368077 -0.1560441 -0.33421442
-0.207495 -0.19140168 -0.13834779 -0.090606175 -0.24432133 -0.31632304 -0.23724847 -0.13270742
-0.232966 -0.1640636 -0.0653901 -0.18862465 -0.21278128 -0.34887934 -0.11247195 -0.015454652
-0.02812791 -0.15083238 -0.15221077 -0.07253575 -0.22904132 -0.1554151 -0.18309882 -0.29358697
-0.24520105 -0.23077032 0.03798511 -0.40860754 -0.20087996 -0.20927724 -0.13367857 -0.18177593
-0.028170744 -0.108089775 -0.10170048 -0.06342869 -0.09474378 -0.011521106 -0.035319746 -0.2165766
-0.16479395 -0.04496297 -0.07535367 -0.1966899 -0.15298982 -0.04261629 0.002180401 0.05547107
-0.16492438 -0.10738309 -0.22479251 -0.12184114 -0.15927453 -0.0023680364 -0.040465005 -0.027524732
-0.079369135 -0.08310154 -0.3126935 -0.14608262 -0.21050231 -0.061446376 -0.1726515 -0.047304492
-0.07585868 -0.16319 -0.0027439403 -0.27991626 0.012499706 -0.10727592 -0.37053853 -0.440743
-0.17515987 -0.2518555 -0.08744635 -0.07606804 -0.16481827 -0.04514402 -0.16926122 -0.12956367
-0.1588018 -0.100160204 -0.06815171 -0.081450574 -0.093357176 -0.06374858 0.09936713 -0.22972803
-0.3268451 -0.26091823 0.0163683 -0.062553935 -0.32562217 -0.08480861 -0.06693607 0.1482328
-0.029796202 -0.3396082 -0.27566198 -0.119430035 -0.004588395 -0.10655532 -0.09908814 -0.15368503
0.0056051486 -0.019037716 -0.020654967 -0.25677443 -0.107510544 0.0798278 -0.2169427 0.11504291
-0.16757815 -0.1216049 -0.1773266 -0.06902104 0.003198727 -0.14713931 -0.3437093 -0.1878466
-0.0904069 0.05283071 -0.09860849 -0.24697372 -0.14813267 -0.10747087 0.07149846 -0.392764
-0.13974664 -0.14069417 -0.10528695 -0.11890957 -0.053139057 -0.27686366 0.0053065782 -0.113912925
-0.2203688 -0.22693324 -0.08649223 0.00573477 -0.053638738 -0.21193624 -0.047649067 0.012473363
-0.10935884 0.019901471 -0.14320749 -0.058979463 -0.35810372 -0.12215297 -0.099134296 -0.21522236
-0.20138912 -0.061819814 -0.10642842 -0.13419181 0.08366378 -0.2446654 -0.107464544 -0.11728647
-0.018681463 -0.01068126 -0.08625566 -0.2047302 0.108391926 -0.045405805 -0.072221145 -0.03587947
-0.08775462 -0.27541047 -0.26159263 -0.13541548 -0.2569138 -0.048781876 -0.012450831 -0.007924333
-0.012141384 -0.372886 -0.21694286 -0.10787699 -0.19799429 -0.13999104 -0.114350215 -0.05676566
-0.2796537 -0.23505615 -0.22523443 -0.10479207 -0.26037508 -0.088004366 -0.06894095 -0.22243631
0.020749072 -0.02290187 -0.07806457 -0.03856682 0.0098644905 -0.012336217 -0.25763023 -0.102978714
-0.04672182 -0.18138771 -0.12480474 -0.017048249 -0.45799094 -0.060539797 -0.12964706 -0.055953708
0.092689194 -0.026802557 -0.16328351 -0.058780972 -0.18515988 -0.01165266 -0.25563926 -0.1765095
-0.1684452 -0.06404793 0.043001898 -0.21548006 -0.21927154 -0.12804528 0.052147176 -0.108265914
-0.16125473 -0.064371124 0.11290764 -0.046853352 -0.15893395 -0.03854772 -0.044086862 -0.11699386
-0.11727889 -0.035839662 -0.06645666 -0.19460645 -0.11326468 -0.23608579 -0.2251667 -0.23386978
-0.07754093 0.010099724 -0.29678443 0.035123434 -0.10707796 -0.2628645 -0.02536416 -0.11413143
00000000: 42e0 08be 90fc 263e 605c fdbd 3982 f4bc
00000010: 5b79 8ebd 72e2 81be 06ca 1fbe 271e abbe
00000020: 9279 54be cdfe 43be 0bab 0dbe bb8f b9bd
00000030: 5f2f 7abe 18f5 a1be 43f1 72be 74e4 07be
00000040: a48e 6ebe 4a00 28be 3feb 85bd d226 41be
00000050: 56e3 59be 50a0 b2be b257 e6bd 8235 7dbc
00000060: 816c e6bc ce73 1abe 24dd 1bbe a08d 94bd
00000070: cf89 6abe 2325 1fbe 427e 3bbe 0851 96be
00000080: fc15 7bbe 0e4f 6cbe 4696 1b3d 0235 d1be
00000090: 7ab3 4dbe c64c 56be 09e3 08be 7823 3abe
000000a0: 55c6 e6bc 2c5e ddbd 5748 d0bd e7e6 81bd
000000b0: 0709 c2bd 05c3 3cbc 70ab 10bd 42c6 5dbe
000000c0: bfbf 28be 172b 38bd 0653 9abd 1469 49be
000000d0: 5da9 1cbe 6b8e 2ebd 0fe5 0e3b a235 633d
000000e0: f0e1 28be aaeb dbbd 0230 66be d987 f9bd
000000f0: dd18 23be 0f31 1bbb a2be 25bd 8c7b e1bc
00000100: 498c a2bd 2431 aabd 5d19 a0be af96 15be
00000110: eb8d 57be 32af 7bbd 8ecb 30be 5bc2 41bd
00000120: cc5b 9bbd 481b 27be aed3 33bb 2f51 8fbe
00000130: 91cb 4c3c 7ab3 dbbd 3ab7 bdbe 11a9 e1be
00000140: 1c5d 33be 34f3 80be 1217 b3bd 90c9 9bbd
00000150: 1fc6 28be f0e8 38bd d052 2dbe 57ac 04be
00000160: f09c 22be cb20 cdbd 2093 8bbd 8fcf a6bd
00000170: 0c32 bfbd 9e8e 82bd fe80 cb3d d33d 6bbe
00000180: 3e58 a7be 1397 85be d016 863c 471c 80bd
00000190: f3b7 a6be 23b0 adbd c715 89bd 57ca 173e
000001a0: 2a17 f4bc 20e1 adbe 9123 8dbe bc97 f4bd
000001b0: 3f5a 96bb ad39 dabd b9ee cabd 9c5f 1dbe
000001c0: 65ab b73b fcf4 9bbc 9b34 a9bc f077 83be
000001d0: 7d2e dcbd c27c a33d 3a26 5ebe 9e9b eb3d
000001e0: 9b99 2bbe fd0b f9bd 1b95 35be e75a 8dbd
000001f0: bca1 513b b0ab 16be aafa afbe dc5a 40be
00000200: 4127 b9bd 0465 583d 3ff3 c9bd aee6 7cbe
00000210: 17b0 17be b019 dcbd c96d 923d 5d18 c9be
00000220: be19 0fbe 2212 10be afa0 d7bd dc86 f3bd
00000230: 57a8 59bd 13c1 8dbe cee2 ad3b 2e4b e9bd
00000240: 5ca8 61be 3061 68be d722 b1bd bdea bb3b
00000250: 4bb4 5bbd d005 59be ab2b 43bd 145d 4c3c
00000260: 87f7 dfbd 6908 a33c fca4 12be 7394 71bd
00000270: 5f59 b7be 562b fabd ec06 cbbd 4063 5cbe
00000280: f338 4ebe c636 7dbd 25f7 d9bd 9469 09be
00000290: ea57 ab3d 9189 7abe 5f16 dcbd e433 f0bd
000002a0: de09 99bc 7400 2fbc cfa6 b0bd cba4 51be
000002b0: 96fc dd3d 70fb 39bd aee8 93bd 5af6 12bd
000002c0: b2b8 b3bd 9a02 8dbe 78ef 85be 5baa 0abe
000002d0: 358a 83be 81cf 47bd 92fe 4bbc 10d5 01bc
000002e0: a8ec 46bc eaea bebe 4526 5ebe 9dee dcbd
000002f0: 04bf 4abe d059 0fbe 7230 eabd 1c83 68bd
00000300: c52e 8fbe 8fb2 70be dba3 66be 3a9d d6bd
00000310: e24f 85be a23b b4bd ea30 8dbd 58c6 63be
00000320: f5f9 a93c b49c bbbc 51e0 9fbd 3ef8 1dbd
00000330: ac9e 213c d81d 4abc 1ce8 83be 81e6 d2bd
00000340: 615f 3fbd b3bd 39be a199 ffbd c5a8 8bbc
00000350: ca7d eabe 94f8 77bd 33c2 04be b72f 65bd
00000360: d5d3 bd3d 0991 dbbc cb33 27be 51c4 70bd
00000370: 8d9a 3dbe ccea 3ebc 26e3 82be e8be 34be
00000380: e67c 2cbe 902b 83bd c222 303d cea6 5cbe
00000390: b888 60be 4d1e 03be 4798 553d 85ba ddbd
000003a0: f61f 25be 02d5 83bd 1f3c e73d 4de9 3fbd
000003b0: 95bf 22be 37e4 1dbd 6d94 34bd 7a9a efbd
000003c0: ea2f f0bd 9ccc 12bd 6e1a 88bd ea46 47be
000003d0: 50f7 e7bd 79c0 71be 1992 66be 8f7b 6fbe
000003e0: c7cd 9ebd 5079 253c 21f4 97be 97dd 0f3d
000003f0: b14b dbbd 2d96 86be 80c8 cfbc bdbd e9bd

FC3.weight f4 [4, 300]
-0.4555998 -0.7272417 -0.34362778 0.00955909 -0.08890317 0.19693018 0.70121527 0.015924942
0.11735932 0.3749573 -0.09238125 0.8161745 0.008007443 0.21320471 -0.28130338 -0.37024245
-0.5810643 -0.16940206 0.22647417 -0.5353474 0.43896616 -0.18659031 0.23963189 -0.02072044
-0.02947067 0.89916664 -0.22434956 0.03451728 0.39723223 -0.12102534 0.20667332 0.09325193
0.46560118 0.35730842 -0.11501453 -0.583748 -0.32047752 -0.71683395 -0.5625878 0.0038934413
0.8039064 0.49338746 -0.19115447 -0.08641539 -0.29692543 0.020228665 0.15076084 0.54381824
-0.09389001 -0.6427167 0.68878186 0.03664769 -0.06712556 -0.085693896 0.08137683 0.33512086
-0.17615078 -0.3272972 0.17342211 -0.058184303 -0.21937229 0.52997595 0.62621063 -0.00673345
0.43760854 0.3257532 0.79329944 0.19581175 -0.23480378 -0.06643713 -0.25808215 -0.37544665
0.72572047 0.2527202 0.8054802 -0.29736704 -0.5013907 0.35112607 -0.49541986 -0.47467494
-0.20895557 0.07263458 -0.009928035 0.10075612 -0.20578672 0.029881177 0.0135233225 0.047790814
0.012350832 0.3731636 0.0124811735 -0.16788901 0.032134894 -0.060718097 -0.27535242 -0.074328505
-0.21421191 -0.3750244 -0.04299637 0.040377647 -0.53044426 -0.049163245 0.19046777 0.38363156
0.57705796 -0.021435045 -0.25461233 0.019423049 -0.18802977 -0.05839433 0.0025494092 0.10680633
0.089368775 0.0034226303 -0.038081177 -0.1262932 0.75984216 -0.026682489 0.62769717 0.13997623
0.61137146 0.08943831 -0.24476792 0.015987424 -0.025657281 -0.037359767 0.25699654 -0.078425646
0.051691208 -0.3260279 -0.2541117 -0.7989708 0.23703818 -0.4486959 0.39955077 0.5194541
-0.17771012 0.042854164 0.12776035 -0.25192288 0.005281136 -0.30548096 0.3139663 -0.30080482
-0.3516289 0.03533849 0.48544556 -0.11309313 0.5853041 0.15027697 -0.2819342 0.009937647
-0.18224701 0.57848024 -0.2556718 -0.093509994 0.29642057 -0.6967764 0.0105818985 0.7683192
-0.7366979 0.03193258 0.6157045 -0.28173605 0.4121114 0.6669634 -0.35800037 0.12863496
0.007051465 0.07945729 -0.12240052 0.112246856 0.51579124 -0.010321707 0.023332952 0.898816
-0.032999285 0.20574588 -0.15478522 -0.039909422 -0.680482 -0.04725174 -0.07779018 0.02543095
0.5663614 -0.835342 0.12923956 -0.100448206 0.051972087 -0.54590607 -0.6902725 0.5541171
0.030895162 0.7233439 0.7032932 -0.10269802 0.8465451 -0.062303107 -1.3820344 -0.27365598
-0.21519835 0.019157536 -0.0039973706 -0.04006177 0.10778581 0.526759 0.46482402 0.048041668
0.22033654 -0.07784086 -0.53460187 0.31628856 -0.21053113 -0.3339355 -0.06250253 0.08425092
-0.6767562 -0.27307865 -0.022056926 -0.0043251915 -0.24307805 0.20909369 0.25925246 0.14375687
-0.2105143 0.42651886 0.73997253 -0.54279166 -0.08328499 0.17477758 0.5656126 -0.81747574
-0.25994715 0.0048945933 -0.76313347 -0.8537879 0.36725584 0.17785506 0.47333795 0.38155594
-0.34757683 0.0072976896 0.38977593 0.16134526 -0.32444367 -0.56190366 -0.049793784 -0.2604861
-0.11370697 0.09674638 -0.47370252 0.025419917 -0.7621546 -0.0935641 -0.24702586 0.41278723
00000000: 6144 e9be 832c 3abf fbef afbe bb9d 1c3c
00000010: dd12 b6bd 11a8 493e d882 333f 0675 823c
00000020: 155a f03d 67fa bf3e 6132 bdbd d0f0 503f
00000030: a631 033c 5652 5a3e ff06 90be 6b90 bdbe
00000040: a1c0 14bf bc77 2dbe d8e8 673e 870c 09bf
00000050: 2cc0 e03e 8811 3fbe 1062 753e eabd a9bc
00000060: 796c f1bc c92f 663f e4bb 65be fe61 0d3d
00000070: 0662 cb3e 22dc f7bd 2ca2 533e defa be3d
00000080: 4763 ee3e 21f1 b63e bd8c ebbd 8270 15bf
00000090: a115 a4be 6e82 37bf c105 10bf 1b29 7f3b
000000a0: cfcc 4d3f 489d fc3e ffbd 43be 8dfa b0bd
000000b0: 9c06 98be 96b6 a53c 0d61 1a3e ac37 0b3f
000000c0: 6849 c0bd 1589 24bf 0254 303f e31b 163d
000000d0: 2079 89bd 4880 afbd e5a8 a63d f694 ab3e
000000e0: df60 34be 8093 a7be 9195 313e aa52 6ebd
000000f0: 21a3 60be 81ac 073f 574f 203f 46a4 dcbb
00000100: 3a0e e03e 20c9 a63e ac15 4b3f e082 483e
00000110: 6770 70be 3110 88bd 5823 84be 8b3a c0be
00000120: d1c8 393f 8b64 813e f333 4e3f 7e40 98be
00000130: 245b 00bf ccc6 b33e aca7 fdbe 9808 f3be
00000140: 73f8 55be 70c1 943d 32a9 22bc 3a59 ce3d
00000150: c1b9 52be 5fc9 f43c ed90 5d3c 4dc0 433d
00000160: 255b 4a3c 4d0f bf3e d67d 4c3c 19eb 2bbe
00000170: e19f 033d 8ab3 78bd fefa 8cbe 8b39 98bd
00000180: 5e5a 5bbe 3303 c0be f61c 30bd 0863 253d
00000190: 32cb 07bf 665f 49bd fc09 433e 5b6b c43e
000001a0: 12ba 133f 8c98 afbc 8c5c 82be 161d 9f3c
000001b0: e08a 40be e52e 6fbd fd13 273b 47bd da3d
000001c0: fa06 b73d 354e 603b 02fb 1bbd 0153 01be
000001d0: 0485 423f 3c95 dabc c3b0 203f ee55 0f3e
000001e0: d782 1c3f 6f2b b73d 71a4 7abe 0ff8 823c
000001f0: 382f d2bc 8e06 19bd 0d95 833e a09d a0bd
00000200: 29ba 533d 21ed a6be ee1a 82be 5a89 4cbf
00000210: 23ba 723e 78bb e5be eb91 cc3e f2fa 043f
00000220: a4f9 35be d987 2f3d 9cd3 023e 09fc 80be
00000230: 610d ad3b 0068 9cbe 31c0 a03e 1703 9abe
00000240: b408 b4be 18bf 103d 528c f83e 5f9d e7bd
00000250: 7dd6 153f 35e2 193e ae59 90be 83d1 223c
00000260: f69e 3abe 4817 143f 6ae7 82be 2b82 bfbd
00000270: 70c4 973e f05f 32bf b35f 2d3c 91b0 443f
00000280: 3c98 3cbf bdcb 023d cf9e 1d3f b53f 90be
00000290: 4400 d33e 1dbe 2a3f d34b b7be e2b8 033e
000002a0: fa0f e73b 81ba a23d 20ad fabd aee1 e53d
000002b0: e50a 043f 611c 29bc bf24 bf3c ce18 663f
000002c0: 422a 07bd 0caf 523e 0480 1ebe 1078 23bd
000002d0: 1134 2ebf 0a8b 41bd 7550 9fbd 9154 d03c
000002e0: 10fd 103f f9d8 55bf 6057 043e cab7 cdbd
000002f0: afe0 543d 80c0 0bbf b3b5 30bf 9eda 0d3f
00000300: da17 fd3c 112d 393f 060b 343f 5753 d2bd
00000310: 2eb7 583f 8b31 7fbd 81e6 b0bf a31c 8cbe
00000320: f55c 5cbe 44f0 9c3c 60fc 82bb cf17 24bd
00000330: cfbe dc3d aed9 063f 6afd ed3e 57c7 443d
00000340: e79f 613e 076b 9fbd abdb 08bf 93f0 a13e
00000350: 7995 57be 98f9 aabe 5401 80bd bf8b ac3d
00000360: e53f 2dbf f7d0 8bbe bab0 b4bc 56ba 8dbb
00000370: 74e9 78be a81c 563e bdbc 843e 0035 133e
00000380: 1091 57be ae60 da3e d76e 3d3f 65f4 0abf
00000390: 5291 aabd e5f8 323e fdcb 103f 1746 51bf
000003a0: cb17 85be d362 a03b b75c 43bf d891 5abf
000003b0: f508 bc3e a31f 363e 5a59 f23e 4d5b c33e
000003c0: 97f5 b1be 7521 ef3b b690 c73e b137 253e
000003d0: 7b1d a6be ebd8 0fbf 91f4 4bbd 6f5e 85be
000003e0: 33df e8bd f722 c63d 2389 f2be 6e3d d03c
000003f0: 901c 43bf 899e bfbd 59f4 7cbe d958 d33e

FC3.bias f4 [4]
0.5315632 -0.13725014 -0.039243236 0.26717147
00000000: 8714 083f 4d8b 0cbe 84bd 20bd b3ca 883e
