results/run001/_actor_net.pt (torch_old, 541483 bytes, 6 tensors)

FC1.weight f4 [400, 33]
-0.030014979 0.36155066 -0.5246767 -0.079854004 0.12816885 0.17017421 -0.29868412 0.037226394
0.016462656 -0.09179642 -0.17754449 0.2656452 -0.2104623 0.08122417 0.54067975 -0.29671407
-0.14229174 -0.14869432 -0.19021854 0.0368801 0.07932123 -0.1711918 -0.03971402 -0.278482
0.33062124 -0.09225674 0.3811626 0.336254 0.13231602 -0.010504499 -0.2949323 0.026900344
0.081085086 -0.2198465 0.30370963 0.029559491 -0.1340908 0.0024060137 0.029178055 0.0177078
0.21123889 0.203215 -0.03561976 -0.20934567 0.27522352 -0.0075065866 0.7242011 -0.2955764
-0.34275177 0.27681705 0.1441534 -0.13001107 -0.13313322 -0.02235888 0.008522258 0.13060386
0.27076718 0.054362867 -0.03560569 -0.40080708 0.13187382 0.10902941 -0.07155528 -0.10754377
0.048611276 0.45810568 0.82067406 -0.016459234 0.07746386 -0.07153139 0.55606693 -0.29865444
-0.09413543 -0.00937262 -0.11403736 0.3727215 0.26399192 0.17912143 -0.090881504 -0.23627855
0.22144462 0.12804878 0.21142738 -0.20826964 0.122346535 -0.06710716 -0.22106892 -0.0014371966
-0.22919512 0.1340961 0.023293924 -0.14451174 -0.136948 0.39843363 0.0915583 -0.03374864
-0.28539118 0.03943383 0.6223741 0.19313245 -0.087745644 -0.2944202 0.0072699897 -0.009708763
0.016822305 -0.30242467 0.17480575 0.1532008 -0.06805845 -0.18259563 -0.13172877 0.48107493
0.26485163 0.5424818 0.22737378 -0.030554706 -0.022744803 0.02338554 0.072405845 0.047332164
0.4679348 -0.16223085 0.36053428 0.11496994 0.15098074 -0.18388712 0.046491563 -0.13042481
-0.00015722215 -0.03219025 -0.003315188 -0.1302187 0.5283185 0.218044 0.061147455 0.014894797
0.28743073 -0.08115574 -0.0811345 0.11396933 0.2968004 -0.055469032 -0.06649589 0.06733026
-0.06934105 -0.7116285 -0.37152147 0.04874731 -0.043086704 0.031799812 -0.063378856 -0.017476209
0.23000717 -0.14673741 0.04882526 -0.33603916 -0.03019333 -0.036915824 0.3003152 0.16583268
-0.35114577 -0.052283593 -0.26010555 -0.08430173 -1.5146259 0.37567955 0.3555948 -0.57057124
-0.30652106 0.15100646 0.06725056 -0.2600045 -0.11557133 -0.19252871 0.21954183 -0.062080543
-0.12953174 0.4285651 0.14325707 -0.06725058 0.002893485 -0.02721681 0.2155247 -0.004856149
-0.0038138053 0.5818057 0.052510533 -0.0348885 0.043279625 -0.22496316 0.022400599 -0.2545473
0.4324296 -0.05340136 0.025817 -0.31998658 -0.11562051 0.24711815 0.13966237 -0.3328903
-0.20737079 -0.09987284 0.21869774 0.30686474 -0.038700137 0.011924693 0.102644525 -0.121475756
-0.14111304 -0.092948824 0.1983971 -0.1391491 0.2836247 0.33144724 0.1532675 -0.08644287
0.15194619 0.047685176 -0.2074093 -0.040275432 -0.07792435 -0.06703555 -0.009791397 0.093706295
-0.14759092 0.05565177 -0.57057947 -0.024114802 0.1263215 -0.07060188 -1.4671204 0.17881292
0.31619596 0.1507628 -0.31560284 -0.2920895 0.3544871 0.20263931 0.2224488 0.29666656
0.08412035 -0.23187265 -0.18975005 0.043205813 -0.40413412 0.6144619 0.22880739 0.06798338
0.33796585 -0.18622363 -0.12920927 0.025651377 -0.29939994 -0.31887138 0.0007970529 -0.017186832
00000000: f9e1 f5bc 2b1d b93e 3651 06bf 7f8a a3bd
00000010: b23e 033e 2642 2e3e 20ed 98be b47a 183d
00000020: b1dc 863c c3ff bbbd 39ce 35be a602 883e
00000030: 6e83 57be dc58 a63d fd69 0a3f e8ea 97be
00000040: edb4 11be 5343 18be a6c8 42be 960f 173d
00000050: 2b73 a23d e74c 2fbe 2bab 22bd 3195 8ebe
00000060: 3047 a93e 1af1 bcbd bf27 c33e 7c29 ac3e
00000070: da7d 073e 101b 2cbc 5e01 97be 1c5e dc3c
00000080: f00f a63d 711f 61be d47f 9b3e bf26 f23c
00000090: 194f 09be 36ae 1d3b d106 ef3c f30f 913c
000000a0: 024f 583e 9817 503e 07e6 11bd b65e 56be
000000b0: 19ea 8c3e d0f9 f5bb 3e65 393f ca55 97be
000000c0: 297d afbe f7ba 8d3e f39c 133e 9f21 05be
000000d0: 1354 08be f829 b7bc f1a0 0b3c 05bd 053e
000000e0: ffa1 8a3e 99ab 5e3d 46d7 11bd 9636 cdbe
000000f0: ee09 073e d04a df3d 938b 92bd e83f dcbd
00000100: 9e1c 473d d48c ea3e b217 523f 84d5 86bc
00000110: 5fa5 9e3d 0d7f 92bd 675a 0e3f 3ce9 98be
00000120: 14ca c0bd 9e8f 19bc 6b8c e9bd 5ad5 be3e
00000130: f329 873e 9c6b 373e 1520 babd 01f3 71be
00000140: 61c2 623e 381f 033e 6b80 583e a344 55be
00000150: d290 fa3d 7b6f 89bd e45f 62be 5160 bcba
00000160: 20b2 6abe 7d50 093e e6d2 be3c e3fa 13be
00000170: 193c 0cbe 7eff cb3e eb82 bb3d 043c 0abd
00000180: cb1e 92be 5e85 213d e953 1f3f 83c4 453e
00000190: fdb3 b3bd 3fbe 96be 1839 ee3b 8111 1fbc
000001a0: eece 893c 68d7 9abe 4700 333e ace0 1c3e
000001b0: 3b62 8bbd 59fa 3abe e8e3 06be 744f f63e
000001c0: a29a 873e 16e0 0a3f acd4 683e dd4d fabc
000001d0: 4f53 babc 0893 bf3c 8449 943d 5fdf 413d
000001e0: 2695 ef3e d81f 26be f397 b83e 5c75 eb3d
000001f0: b29a 1a3e e84c 3cbe f06d 3e3d 158e 05be
00000200: 00dc 24b9 ecd9 03bd a043 59bb 0d58 05be
00000210: e23f 073f ed46 5f3e c175 7a3d 4e09 743c
00000220: 1f2a 933e fb34 a6bd d829 a6bd c168 e93d
00000230: 39f6 973e 7f33 63bd ff2e 88bd 73e4 893d
00000240: ae02 8ebd 492d 36bf 1038 bebe 42ab 473d
00000250: af7b 30bd 8540 023d c6cc 81bd 442a 8fbc
00000260: 0087 6b3e 5542 16be fffc 473d 530d acbe
00000270: 0158 f7bc 0c35 17bd eac2 993e 0bd0 293e
00000280: 61c9 b3be 5227 56bd 8e2c 85be 63a6 acbd
00000290: 43df c1bf 1259 c03e 8610 b63e f510 12bf
000002a0: 54f0 9cbe 70a1 1a3e a9ba 893d 4f1f 85be
000002b0: a9b0 ecbd 3f26 45be 93cf 603e 2b48 7ebd
000002c0: f8a3 04be e36c db3e fbb1 123e acba 89bd
000002d0: 9fa0 3d3b caf5 debc 82b2 5c3e 5520 9fbb
000002e0: 09f1 79bb 38f1 143f 4915 573d 3ee7 0ebd
000002f0: fa45 313d be5c 66be 7681 b73c 0654 82be
00000300: 6a67 dd3e 62bb 5abd 2c7e d33c 48d5 a3be
00000310: 72ca ecbd 8a0c 7d3e a703 0f3e 9970 aabe
00000320: 0259 54be 228a ccbd 4df2 5f3e 601d 9d3e
00000330: 0984 1ebd ca5f 433c 4b37 d23d 48c8 f8bd
00000340: f07f 10be f45b bebd 9c28 4b3e 1a7d 0ebe
00000350: 4237 913e 74b3 a93e 28f2 1c3e f608 b1bd
00000360: c897 1b3e 8851 433d 1b63 54be daf7 24bd
00000370: cd96 9fbd ef49 89bd 186c 20bc 16e9 bf3d
00000380: 1322 17be 1cf3 633d 7f11 12bf 688c c5bc
00000390: 6c5a 013e b897 90bd 9aca bbbf bc1a 373e
000003a0: 70e4 a13e 9061 1a3e b296 a1be c18c 95be
000003b0: 557f b53e ae80 4f3e 9ec9 633e aee4 973e
000003c0: 4a47 ac3d 0670 6dbe d64d 42be 94f8 303d
000003d0: abea cebe 604d 1d3f 7c4c 6a3e df3a 8b3d
000003e0: dc09 ad3e 68b1 3ebe 6f4f 04be d622 d23c
000003f0: f34a 99be 1c43 a3be 51f1 503a 66cb 8cbc

FC1.bias f4 [400]
-0.307139 -0.19909531 -0.25374082 0.0032663075 -0.1838093 -0.3568772 0.18133461 -0.18079671
-0.5425018 0.11202039 -0.11158248 -0.3299793 -0.114495344 -0.08004331 -0.115491755 -0.20184012
-0.54033756 -0.49674574 -0.41183344 -0.28604123 -0.013837601 -0.14411297 -0.32591143 -0.1367343
-0.3472273 -0.48382178 -0.009550915 -0.44912797 -0.07649349 -0.10444393 -0.518563 -0.27583575
-0.42223796 -0.38653013 0.047278557 -0.33850655 -0.18806137 -0.24027346 -0.37770465 -0.14801225
0.07325766 -0.324444 -0.549681 -0.36272863 -0.21395607 -0.5211868 -0.056024373 -0.12090284
-0.25244442 -0.28413144 -0.10087508 -0.27992803 -0.62519664 -0.122315675 -0.03582589 -0.39437446
-0.27735528 -0.41996267 -0.059153855 -0.3945991 -0.104877196 -0.53737336 -0.32451716 0.09961335
-0.46741605 -0.3403942 0.012428457 0.24034995 -0.35351658 0.020373022 -0.20653974 -0.3308921
-0.084440365 -0.2980787 -0.22853492 0.0522124 0.14000441 -0.40703526 -0.22928517 -0.30108413
0.34123236 0.0045602596 -0.061432794 -0.14888534 0.2885564 -0.06410887 0.091767214 -0.49250072
-0.49555072 -0.3959743 -0.02210725 0.10491582 -0.2139115 -0.12424846 -0.3549119 -0.28024402
-0.19133857 -0.04367179 -0.06440247 0.06260207 -0.23480037 -0.20851941 -0.36325893 -0.2399627
0.25967717 -0.22408922 -0.14751129 -0.28483936 -0.6687056 0.022658734 -0.27585122 -0.46910387
-0.11834491 -0.374172 0.04963595 -0.21483774 -0.034126297 -0.48187846 -0.35144967 -0.29346713
-0.14509556 0.084690794 0.24044496 -0.17932759 0.11322965 0.15888424 -0.53874236 -0.08173022
-0.15706712 -0.22534844 -0.02191439 -0.14140649 0.15153584 -0.055881716 -0.09370743 -0.1202298
0.14228804 -0.45236793 0.07594662 -0.30935812 0.01006956 -0.14915605 -0.32963675 0.08822366
0.035171963 -0.2556067 -0.03894211 0.15472464 0.047554534 -0.42037374 -0.21002132 -0.5040019
-0.20326225 -0.15450044 0.010498861 -0.29906598 0.026871216 -0.04950955 -0.24106666 -0.37495098
-0.14733402 -0.5087507 -0.30644816 -0.3529029 -0.35947075 -0.10084551 -0.03169767 0.058683813
0.04491887 -0.33063924 -0.32624182 -0.07119659 -0.21463199 0.19544104 -0.22708768 -0.2026999
-0.034243148 -0.368572 0.095015906 -0.40500325 -0.54362357 0.0041168155 -0.18563193 0.007366029
-0.25304833 -0.2825322 -0.096176766 -0.2461739 -0.3509513 -0.47782522 -0.09830942 -0.26663467
-0.0035833449 -0.4956434 -0.20494194 -0.22254851 -0.39202848 -0.4442732 -0.43079343 -0.35308537
-0.119156264 -0.07847723 0.12343789 -0.046354525 -0.18425837 -0.054020077 -0.22221982 -0.02411066
-0.33276218 -0.24355762 -0.24312492 -0.3739784 -0.011192798 -0.07445957 -0.4301316 -0.39685655
-0.21920145 -0.41392934 -0.09282103 -0.04939578 -0.3061121 -0.26795343 -0.25938675 -0.35109994
-0.29137984 -0.10117479 -0.10876917 -0.23336956 -0.23015463 0.13558258 -0.44189638 -0.14282294
-0.18626986 0.03299893 -0.35416335 0.0011052394 -0.18305565 -0.22252935 -0.058165833 -0.005025208
-0.23262426 -0.24170789 0.007177741 0.066438615 -0.067147315 -0.4543253 -0.07961416 -0.40563315
0.09185356 0.004344354 -0.07661346 0.010705681 -0.0017363997 -0.3521218 -0.11875821 -0.3578719
00000000: 5341 9dbe a4df 4bbe 51ea 81be 8c0f 563b
00000010: 8138 3cbe 9cb8 b6be c8af 393e c622 39be
00000020: 66e1 0abf f26a e53d 5b85 e4bd 0cf3 a8be
00000030: 897c eabd bfed a3bd f186 ecbd 2daf 4ebe
00000040: 9053 0abf 7555 febe d5db d2be ff73 92be
00000050: 1bb7 62bc 5a92 13be dddd a6be 1404 0cbe
00000060: c7c7 b1be 7db7 f7be 717b 1cbc 1af4 e5be
00000070: 9ea8 9cbd b3e6 d5bd 8bc0 04bf 583a 8dbe
00000080: 932f d8be 47e7 c5be 29a7 413d bb50 adbe
00000090: 2993 40be 3f0a 76be 8162 c1be 8690 17be
000000a0: 1d08 963d 861d a6be e5b7 0cbf 91b7 b9be
000000b0: 4d17 5bbe 806c 05bf d079 65bd e89b f7bd
000000c0: 6540 81be ad79 91be 9897 cebd ba52 8fbe
000000d0: e30c 20bf a480 fabd 2bbe 12bd 73eb c9be
000000e0: 8301 8ebe 5905 d7be 504b 72bd e508 cabe
000000f0: dbc9 d6bd 4d91 09bf 1d27 a6be 1602 cc3d
00000100: 2851 efbe 2648 aebe baa0 4b3c 4c1e 763e
00000110: 2000 b5be 53e5 a63c 277f 53be b06a a9be
00000120: 12ef acbd c59d 98be 0f05 6abe abdc 553d
00000130: 515d 0f3e ed66 d0be bbc9 6abe b327 9abe
00000140: 02b6 ae3e 3b6e 953b f4a0 7bbd 6675 18be
00000150: aabd 933e 834b 83bd 73f0 bb3d 0e29 fcbe
00000160: d3b8 fdbe 25bd cabe 431a b5bc 1bde d63d
00000170: 9e0b 5bbe fa75 febd 03b7 b5be 257c 8fbe
00000180: 42ee 43be 31e1 32bd 71e5 83bd 8435 803d
00000190: 826f 70be 1d86 55be 13fd b9be c8b8 75be
000001a0: 68f4 843e a577 65be 330d 17be 77d6 91be
000001b0: 4a30 2bbf cf9e b93c 5f3c 8dbe 622e f0be
000001c0: d15e f2bd 7993 bfbe 114f 4b3d 6dfe 5bbe
000001d0: 04c8 0bbd c6b8 f6be 36f1 b3be 5341 96be
000001e0: ee93 14be 5e72 ad3d 3437 763e a7a1 37be
000001f0: f2e4 e73d 8db2 223e 05eb 09bf 2c62 a7bd
00000200: 34d6 20be bec1 66be cf85 b3bc ddcc 10be
00000210: 362c 1b3e 3ae4 64bd aee9 bfbd 0b3b f6bd
00000220: f5b3 113e c59c e7be e789 9b3d 3064 9ebe
00000230: ccfa 243c 5dbc 18be 26c6 a8be 9bae b43d
00000240: 7a10 103d e2de 82be c381 1fbd 2370 1e3e
00000250: 8bc8 423d 3a3b d7be d40f 57be 4506 01bf
00000260: fb23 50be 5d35 1ebe 6a03 2c3c 2d1f 99be
00000270: 0621 dc3c 87ca 4abd 2eda 76be 93f9 bfbe
00000280: bbde 16be 7c3d 02bf c6e6 9cbe b0af b4be
00000290: 8d0c b8be 1788 cebd 6bd5 01bd 705e 703d
000002a0: d9fc 373d 8c49 a9be 2b09 a7be 85cf 91bd
000002b0: 7dc8 5bbe b221 483e ac89 68be 9090 4fbe
000002c0: 8b42 0cbd 78b5 bcbe b397 c23d 965c cfbe
000002d0: ea2a 0bbf 5ae6 863b 4c16 3ebe bb5e f13b
000002e0: 8d8f 81be 0fa8 90be 53f8 c4bd 0315 7cbe
000002f0: e4af b3be 82a5 f4be 7356 c9bd 5784 88be
00000300: 8dd6 6abb f9c4 fdbe 4ddc 51be c2e3 63be
00000310: f5b7 c8be c777 e3be f590 dcbe 9bc7 b4be
00000320: 3308 f4bd acb8 a0bd 01cd fc3d 3ede 3dbd
00000330: 3aae 3cbe 2844 5dbd 988d 63be b883 c5bc
00000340: ce5f aabe 2b67 79be bdf5 78be 197a bfbe
00000350: ff61 37bc 427e 98bd 363a dcbe c830 cbbe
00000360: 5876 60be 8cee d3be f418 bebd 3b53 4abd
00000370: baba 9cbe 3131 89be 57ce 84be 5fc3 b3be
00000380: bd2f 95be ba34 cfbd 5fc2 debd 6ef8 6ebe
00000390: a8ad 6bbe 29d6 0a3e 3e40 e2be 2d40 12be
000003a0: 87bd 3ebe e329 073d e654 b5be aedd 903a
000003b0: f172 3bbe bcde 63be 4c3f 6ebd 80aa a4bb
000003c0: 0e35 6ebe 4682 77be 4133 eb3b f810 883d
000003d0: 8884 89bd 539d e8be c00c a3bd 26af cfbe
000003e0: b81d bc3d 155b 8e3b 85e7 9cbd e166 2f3c
000003f0: e897 e3ba 4f49 b4be 8137 f3bd fc3a b7be

FC2.weight f4 [300, 400]
-0.22820632 -0.87995297 0.27420238 0.19290203 -0.100774065 -0.0036663993 0.27875537 -0.00471242
0.24388047 0.07788857 -0.22307539 0.18773197 -0.08893083 -0.25246963 -0.055963974 -0.020080654
0.25755534 0.1038647 -0.17231786 -0.20818257 0.4508006 -0.10971293 0.11809809 -0.022926845
-0.31848866 -0.246931 0.07433925 0.4081965 -0.080164455 0.17842288 0.4504247 -0.13026994
-0.13303556 0.13326603 -0.22636832 -0.057120226 -0.7427607 0.014125346 -0.7951876 0.071007065
-0.8201297 -0.37774116 -0.03342736 0.14245248 -0.6758193 0.32042238 0.48130128 0.27194113
0.06462293 0.10807746 0.3471603 -0.13714367 -0.105896905 -0.5549643 -0.23117399 0.0331854
0.3507561 -0.0115704145 0.023160702 0.32281512 0.056095935 -0.28648472 -0.06384386 0.30934107
-0.1088444 0.13148378 -0.42687538 -0.16708745 -0.25990722 -0.66506374 0.1346288 -0.06314008
-0.048686817 0.062140442 -0.0369649 0.16984747 0.4048979 -0.1186921 0.12419625 -0.01463797
-0.21524207 -0.101043984 0.4020987 -0.2498537 0.050784174 -0.7198822 0.269887 0.30988595
-0.12454032 0.008620736 0.6762939 -0.10930688 0.12943752 -0.32187986 -0.18072751 0.047201023
-0.05127733 0.35109112 0.26477602 0.32525164 0.2681716 0.26905727 -0.62839895 0.055675387
-1.0799224 -0.5157417 0.24945976 0.15344846 0.050752476 0.21383075 -0.5815512 0.06621895
-0.41181198 0.2087281 -0.2965362 0.10143062 0.25383282 -0.072578564 0.32418835 0.22697371
-0.36892757 0.0003091317 0.0447044 0.06554353 -0.3441215 0.3508801 0.034318194 -0.17324072
0.037933145 -0.045662668 -0.04562308 -0.4528809 0.25776324 0.117672674 -0.10179629 0.21683286
0.46444893 -0.22586092 -0.28707966 0.41092992 0.028018307 0.22087857 0.24071297 -0.49320367
0.21607251 0.063757546 -0.30646092 0.05091778 -0.023957727 -0.1883919 -0.36535627 -0.20615323
-0.5517775 -0.299508 0.21278934 0.3352361 0.27558067 -0.02637946 -0.08204222 -0.10684657
0.15674444 0.114116445 0.24674812 -0.046791777 -0.07852851 0.07591898 0.3066588 0.13306688
0.2832237 -0.3510601 -0.24716136 0.00085635955 -0.10210512 -0.030950338 0.106844775 -0.032975107
0.0011168363 0.3173032 0.16860336 0.04829552 -0.11222652 -0.49109077 0.021054946 -0.16783257
0.058983274 0.1178278 -0.034132786 0.023504067 0.019312177 -0.18258388 -0.23384276 -0.2277182
0.21751137 -0.568055 0.023203652 -0.043937415 0.19460404 -0.22759353 -0.36902657 -0.3862766
-0.56251985 -0.4266639 0.1820025 0.28868356 -0.49821666 0.26715627 -0.25149396 -0.14882693
-0.10521969 0.2661004 -0.2955442 -0.41999462 -0.10390403 0.124899626 -0.04215625 -0.07342414
0.40582326 -0.32308418 -0.36829147 0.21617177 0.08881384 -0.37368792 0.082823455 0.45092136
-0.05157457 0.5035393 -0.37706852 -0.06681479 -0.34179887 0.12302486 -0.30649185 -0.05312936
0.36832145 -0.11793077 -0.18338864 -0.25688455 0.16577199 0.29532942 -0.29458627 -0.11798163
0.11491845 -0.011876532 -0.04151204 0.07245652 0.20701891 -0.01449296 -0.272288 0.17106247
-0.15135756 0.28173044 -0.014228536 0.23667404 0.5720102 -0.221977 0.0051555266 0.030318981
00000000: ebae 69be 9944 61bf 4164 8c3e 1c88 453e
00000010: a262 cebd f947 70bb 06b9 8e3e a56a 9abb
00000020: cdbb 793e 0b84 9f3d e06d 64be cf3c 403e
00000030: 5e21 b6bd b343 81be 7b3a 65bd 2f80 a4bc
00000040: 4bde 833e 04b7 d43d 1874 30be d02d 55be
00000050: 56cf e63e 2cb1 e0bd 69dd f13d 14d1 bbbc
00000060: f210 a3be 7bdb 7cbe 2d3f 983d 22ff d03e
00000070: 432d a4bd 7db4 363e 119e e63e 7c65 05be
00000080: 793a 08be e476 083e 19cd 67be e6f6 69bd
00000090: 9125 3ebf ff6d 673c 6a91 4bbf 276c 913d
000000a0: 05f4 51bf 4a67 c1be 21eb 08bd 10df 113e
000000b0: 7e02 2dbf 670e a43e 1f6d f63e de3b 8b3e
000000c0: 0759 843d b757 dd3d ffbe b13e 646f 0cbe
000000d0: 7ae0 d8bd 2412 0ebf e0b8 6cbe 6aed 073d
000000e0: 4e96 b33e d691 3dbc 83bb bd3c 0648 a53e
000000f0: dac4 653d 20ae 92be 92c0 82bd f461 9e3e
00000100: d0e9 debd afa3 063e 698f dabe f918 2bbe
00000110: 8f12 85be 9e41 2abf 22dc 093e 964f 81bd
00000120: d46b 47bd fa86 7e3d 8268 17bd 7fec 2d3e
00000130: c74e cf3e d814 f3bd 9b5a fe3d 19d4 6fbc
00000140: 6b68 5cbe 26f0 cebd e1df cd3e a6d9 7fbe
00000150: 1103 503d 334a 38bf a12e 8a3e 5fa9 9e3e
00000160: ff0e ffbd fd3d 0d3c 9921 2d3f 49dc dfbd
00000170: 458b 043e 70cd a4be a210 39be dc55 413d
00000180: 2d08 52bd 37c2 b33e b990 873e 6287 a63e
00000190: ca4d 893e e0c1 893e c1de 20bf e00b 643d
000001a0: e63a 8abf a607 04bf 6172 7f3e 9821 1d3e
000001b0: d4e1 4f3d 73f6 5a3e 8ae0 14bf cd9d 873d
000001c0: 05d9 d2be d2bc 553e 98d3 97be dbba cf3d
000001d0: 60f6 813e 12a4 94bd 04fc a53e cc6b 683e
000001e0: 13e4 bcbe f412 a239 f61b 373d b03b 863d
000001f0: b130 b0be 8ea6 b33e 3c91 0c3d 0466 31be
00000200: c95f 1b3d c708 3bbd 44df 3abd 01e0 e7be
00000210: 8bf9 833e 5ffe f03d 937a d0bd 6f09 5e3e
00000220: 40cc ed3e 1648 67be 1bfc 92be 6865 d23e
00000230: a686 e53c fe2d 623e 767d 763e 3185 fcbe
00000240: 1d42 5d3e 5193 823d 72e8 9cbe 298f 503d
00000250: ff42 c4bc cee9 40be fa0f bbbe d519 53be
00000260: 4a41 0dbf 1d59 99be 73e5 593e 11a4 ab3e
00000270: e918 8d3e bd19 d8bc c005 a8bd 60d2 dabd
00000280: 9d81 203e e2b5 e93d 8aab 7c3e bca8 3fbd
00000290: 8ed3 a0bd 697b 9b3d 6202 9d3e af42 083e
000002a0: b202 913e 26be b3be de17 7dbe 517d 603a
000002b0: 7d1c d1bd 908b fdbc 6fd1 da3d e810 07bd
000002c0: cf62 923a 9175 a23e 5ca6 2c3e 86d1 453d
000002d0: 05d7 e5bd 4070 fbbe 6c7b ac3c 4ddc 2bbe
000002e0: 7298 713d b44f f13d d2ce 0bbd 9a8b c03c
000002f0: 9234 9e3c 45f7 3abe 7a74 6fbe f62e 69be
00000300: 4dbb 5e3e 0d6c 11bf 9615 be3c b8f7 33bd
00000310: 4846 473e 470e 69be 0df1 bcbe 0cc6 c5be
00000320: 4d01 10bf b173 dabe dd5e 3a3e 55ce 933e
00000330: 4116 ffbe b5c8 883e d1c3 80be 1666 18be
00000340: 6c7d d7bd 503e 883e 9251 97be 8909 d7be
00000350: a3cb d4bd 60cb ff3d 08ac 2cbd 655f 96bd
00000360: 11c8 cf3e 4a6b a5be b390 bcbe 225c 5d3e
00000370: 08e4 b53d 0654 bfbe 589f a93d 2adf e63e
00000380: db3f 53bd f4e7 003f 200f c1be 31d6 88bd
00000390: 4300 afbe 75f4 fb3d 80ec 9cbe 2c9e 59bd
000003a0: a194 bc3e b085 f1bd 3bca 3bbe 5f86 83be
000003b0: 22c0 293e 6b35 973e 03d4 96be 5aa0 f1bd
000003c0: 5d5a eb3d c995 42bc 8708 2abd 1564 943d
000003d0: c4fc 533e e173 6dbc 5569 8bbe 002b 2f3e
000003e0: 7afd 1abe f93e 903e ce1e 69bc ae5a 723e
000003f0: 436f 123f f04d 63be b1ef a83b 835f f83c

FC2.bias f4 [300]
0.3234828 -0.24817362 -0.017616795 -0.251634 -0.085481144 -0.03553816 -0.023870436 0.09948299
-0.34593707 -0.08952108 -0.13327464 0.05415543 -0.0558187 -0.055044655 0.33657667 0.073845476
0.14975713 0.16632622 0.037855163 0.24918246 -0.052923117 -0.25287926 0.28444946 0.13588569
0.062425327 0.07087824 0.14251348 -0.08416959 -0.26719695 -0.15232402 0.18832278 -0.044708617
-0.01917715 0.08030644 0.30738953 -0.20659126 0.0999691 -0.2732626 0.088285714 -0.09369069
-0.30784497 0.23683667 -0.015499039 0.30921292 -0.08319704 -0.0743074 -0.065889366 -0.17359047
-0.054195113 -0.086086474 -0.27200294 0.10113627 -0.1605611 0.035251457 -0.038946215 -0.04390024
-0.1808769 -0.056381598 0.11481344 0.011161978 -0.25172678 0.03960095 0.17163731 -0.25777328
-0.020536687 0.15097147 -0.427899 0.05404188 0.2757056 -0.08183708 -0.10808888 -0.105855666
0.35680833 -0.030065253 0.27234346 -0.5328224 -0.22108908 -0.13351439 -0.05459544 -0.32660025
0.051708337 -0.44333243 -0.19887063 -0.0056846 -0.19750692 0.004396226 0.057947133 -0.15895703
-0.29744822 -0.33278528 0.009016738 -0.21115436 -0.0022690578 -0.13801605 -0.007931311 -0.092591345
-0.016044198 0.0017657619 -0.23312816 -0.3500556 0.15377347 0.033699963 -0.33389813 -0.13642281
-0.073408574 -0.064921595 -0.11590449 -0.15963481 -0.14614253 -0.0029971222 -0.42301732 -0.25172797
-0.13857324 0.20391822 -0.4892598 0.06029679 -0.12513636 -0.21008328 -0.13843527 -0.108137734
0.3357561 -0.25875145 -0.03568513 0.056756545 0.20038259 -0.06846494 0.15383478 -0.17185107
-0.14899668 -0.045828838 -0.037403543 -0.41040277 -0.3902208 0.036730018 0.106687784 -0.0890587
-0.094173186 0.24144523 0.2207854 -0.019849768 0.09762089 -0.38612193 0.17220671 -0.16989708
-0.060137514 0.21446332 -0.19553107 -0.05625921 -0.07625466 -0.05249153 0.1432532 -0.20706145
0.3104647 0.18044597 -0.08490523 -0.14990601 0.080234416 -0.06289961 0.12827541 -0.27482003
-0.022093246 -0.018283205 -0.07337205 -0.0789166 -0.060222853 0.03458104 -0.24756376 0.22601564
-0.0065144976 -0.03143864 -0.07403189 -0.24395108 0.09601416 -0.10659858 -0.18757121 0.27100664
-0.09733313 -0.06604657 -0.044288144 0.06032956 -0.068783544 -0.3059755 -0.11952404 -0.07253504
-0.25395784 -0.048854657 0.04612375 0.0779732 0.22711387 0.023391124 -0.028563794 -0.11476207
0.115861416 0.03871402 -0.3160189 -0.22913839 -0.04134459 -0.15110278 -0.2171516 -0.08535748
-0.013416859 0.026232589 -0.199528 0.1695275 -0.008229412 -0.17651823 -0.45393234 -0.29473177
-0.15657787 -0.16445678 -0.21804635 -0.2972928 0.19277832 -0.1286443 -0.0016157293 0.01854176
-0.30378115 -0.23507652 0.16917983 0.04904879 -0.10501995 -0.09192893 -0.17010438 -0.4636577
-0.09951381 0.034822326 -0.004214376 0.19871254 -0.3835895 0.039702587 0.07758442 -0.23090394
-0.0356045 -0.070004106 0.0053287353 -0.04030967 -0.14177878 0.14526033 -0.19962922 -0.22586931
0.31216538 0.042307965 0.03374339 -0.066183165 0.15665184 -0.12669712 0.33530056 -0.011452736
-0.2628507 -0.23263876 0.22259909 -0.37352344 -0.2505888 -0.28418344 0.2696826 -0.11210719
00000000: 8a9f a53e 3a21 7ebe 1951 90bc 2cd6 80be
00000010: bd10 afbd 7690 11bd ef8b c3bc bdbd cb3d
00000020: aa1e b1be d456 b7bd 2679 08be 16d2 5d3d
00000030: 26a2 64bd 8176 61bd c753 ac3e 4c3c 973d
00000040: ef59 193e 6c51 2a3e 040e 1b3d b029 7f3e
00000050: e9c5 58bd 6479 81be 5ca3 913e 9e25 0b3e
00000060: b3b1 7f3d 9c28 913d 0eef 113e 1b61 acbd
00000070: 0ace 88be d4fa 1bbe b0d7 403e 6220 37bd
00000080: 6619 9dbc b477 a43d 2962 9d3e a98c 53be
00000090: 99bc cc3d 13e9 8bbe 24cf b43d e8e0 bfbd
000000a0: db9d 9dbe 5085 723e aeef 7dbc 2851 9e3e
000000b0: 3663 aabd 7a2e 98bd 01f1 86bd b3c1 31be
000000c0: b2fb 5dbd 1b4e b0bd f843 8bbe 8820 cf3d
000000d0: 216a 24be d563 103d 1186 1fbd bdd0 33bd
000000e0: cb37 39be 64f0 66bd 4f23 eb3d bbe0 363c
000000f0: 55e2 80be 9b34 223d b1c1 2f3e dcfa 83be
00000100: 8e3c a8bc 4498 1a3e 9415 dbbe 055b 5d3d
00000110: 4929 8d3e 339a a7bd b45d ddbd dbca d8bd
00000120: 95af b63e 684b f6bc 9a70 8b3e 0c67 08bf
00000130: 2d65 62be ffb7 08be 789f 5fbd 2638 a7be
00000140: 1fcc 533d 78fc e2be bea4 4bbe e245 babb
00000150: 413f 4abe 370e 903b f959 6d3d a2c5 22be
00000160: 224b 98be d562 aabe f1ba 133c d938 58be
00000170: 79b4 14bb 1454 0dbe 54f2 01bc 88a0 bdbd
00000180: 1f6f 83bc 2371 e73a 26b9 6ebe 7d3a b3be
00000190: cb76 1d3e f908 0a3d b2f4 aabe 6cb2 0bbe
000001a0: 3c57 96bd 9df5 84bd 555f edbd 4f77 23be
000001b0: 63a6 15be 5e6b 44bb ba95 d8be 7de2 80be
000001c0: 25e6 0dbe f0cf 503e 4380 fabe c4f9 763d
000001d0: bf23 00be 1220 57be fac1 0dbe 5177 ddbd
000001e0: 39e8 ab3e 127b 84be 922a 12bd 8d79 683d
000001f0: 1831 4d3e 5937 8cbd dd86 1d3e baf9 2fbe
00000200: 9692 18be 05b7 3bbd 7534 19bd 5020 d2be
00000210: 05cb c7be 3772 163d 207f da3d 6864 b6bd
00000220: dfdd c0bd 6b3d 773e 9115 623e fb9b a2bc
00000230: 76ed c73d c6b1 c5be f556 303e 80f9 2dbe
00000240: c152 76bd 469c 5b3e 4c39 48be 0f70 66bd
00000250: 672b 9cbd 5c01 57bd f8b0 123e eb07 54be
00000260: 3bf5 9e3e d4c6 383e cbe2 adbd f680 19be
00000270: f151 a43d 83d1 80bd a15a 033e 36b5 8cbe
00000280: e5fc b4bc a9c6 95bc 1644 96bd 079f a1bd
00000290: 3dac 76bd d9a4 0d3d 5b81 7dbe a570 673e
000002a0: 9177 d5bb cec5 00bd 089e 97bd 50ce 79be
000002b0: 12a3 c43d 5b50 dabd ab12 40be 62c1 8a3e
000002c0: 9856 c7bd 6d43 87bd 7c67 35bd 211c 773d
000002d0: 63de 8cbd d2a8 9cbe 05c9 f4bd 408d 94bd
000002e0: c306 82be d21b 48bd 42ec 3c3d 6ab0 9f3d
000002f0: 8a90 683e be9e bf3c 9efe e9bc 6008 ebbd
00000300: c048 ed3d 9892 1e3d 3bcd a1be 41a3 6abe
00000310: f258 29bd b0ba 1abe fd5c 5ebe e7cf aebd
00000320: 63d2 5bbc bae5 d63c 1151 4cbe 9e98 2d3e
00000330: a8d4 06bc 32c1 34be d269 e8be 15e7 96be
00000340: f355 20be 5c67 28be 8b47 5fbe c336 98be
00000350: ae67 453e 55bb 03be e1c6 d3ba e4e4 973c
00000360: 3489 9bbe e6b7 70be 7a3d 2d3e 62e7 483d
00000370: b314 d7bd 3c45 bcbd d82f 2ebe 8b64 edbe
00000380: e5cd cbbd dba1 0e3d c018 8abb 4d7b 4b3e
00000390: d865 c4be 2e9f 223d 95e4 9e3d 1572 6cbe
000003a0: 06d6 11bd 505e 8fbd ac9c ae3b c11b 25bd
000003b0: 752e 11be 20bf 143e 9a6b 4cbe 494a 67be
000003c0: 24d4 9f3e 1e4b 2d3d 8236 0a3d 0a8b 87bd
000003d0: 5769 203e e4bc 01be 84ac ab3e 42a4 3bbc
000003e0: 5e94 86be db38 6ebe 04f1 633e 773e bfbe
000003f0: 2d4d 80be 7e80 91be d613 8a3e 7498 e5bd

FC3.weight f4 [4, 300]
-0.10893788 -0.024612954 -0.08780292 0.3309094 0.53974557 -0.0041445047 0.011445729 0.2803321
0.46779394 0.06838428 0.11187442 -0.26195788 -0.038798135 0.012278695 0.17425951 0.4185347
-0.22317712 -0.09943669 -0.4283239 -0.8805881 -0.30739793 -0.23476826 0.11473673 0.32937166
-0.8391078 -0.01152645 -0.35141453 -0.03386419 1.0286591 -0.5417718 -0.17998204 -0.20664549
0.030807275 0.27901423 0.35841277 -0.13075651 -0.22826582 -0.46437085 -0.041147415 -0.11791075
-0.29162762 -0.118113406 0.045445006 -0.104604125 0.024035133 -0.008589819 0.39972723 0.036527447
-0.0015725631 0.25710237 0.77631575 -0.13068864 0.6267705 0.22076584 0.009332552 0.042533137
0.2704507 -0.013148264 0.41289756 0.03161105 0.17858464 0.16571453 0.2561987 0.39539212
0.052887235 -0.05053085 0.51276 -0.11045596 -0.58852637 0.31958368 -0.16741998 -0.10000954
-0.15070689 -0.24277173 -0.6843287 0.5516075 0.028336724 -0.0065928656 -0.5452597 0.21188985
-0.16680464 0.14216642 -0.23069988 -0.29058674 -0.06049156 -0.0036839054 -0.091346756 -0.8047024
-0.2548153 0.054348387 -0.042946126 0.0134444805 0.061761595 -0.11166496 0.008353126 0.06059701
-0.074700296 -0.008014914 -0.5120158 0.02431579 -0.39961407 -0.8589054 0.73194665 -0.42165434
-0.6453299 -0.48169193 0.10442062 -0.327015 0.00071229885 0.110231444 0.07792953 0.053108737
-0.21364938 0.0093555795 0.47112986 0.32324323 -0.22964013 0.0068466454 0.77823967 -0.941911
-0.42032036 0.1253028 0.15596573 0.72888565 -0.54122406 -0.00162053 -0.6814052 0.5180752
0.4083637 0.22154371 0.038974643 -0.03299253 -0.4024041 -0.0140293585 -0.090588704 -0.00557323
0.11385994 -0.42334518 0.6792041 0.053444136 -0.43716887 0.09888494 -0.63359165 0.044717707
0.45506585 -0.44972646 0.3679713 -0.2840271 -0.016270485 -0.29437995 -0.046668623 -0.007896947
-0.16998959 -0.1966018 0.0048279674 0.96794254 0.54300016 0.0015157155 0.40901053 -0.34156165
0.040373813 0.006661931 0.11875341 0.010530392 -0.05824887 0.02432903 -0.08583677 0.859846
-0.006762608 0.10058427 0.008562719 0.24966072 0.17671575 -0.15218006 0.011417485 0.71300143
0.5584472 -0.061872672 -0.009388151 0.012799882 0.04504022 -0.022544298 0.16581221 0.5228396
-0.1806344 -0.03893144 -0.4510366 -0.12485286 -0.14209692 0.61492735 0.042640876 0.05993629
0.015886277 0.005777416 -0.24553975 0.57811564 -0.06070996 0.15297438 0.33310002 0.0006989031
-0.31957477 0.25406134 -0.49892864 -0.028694998 -0.0036624847 -0.20466383 0.028769897 -0.2784634
0.29637477 -0.061427835 -0.30355915 0.21339531 -0.07202808 0.046734296 -0.1645968 0.31358936
-0.715465 -0.19624892 0.49614066 -0.5699527 0.121740885 0.8038378 0.04333302 -0.005235128
0.00045648642 -0.11763333 0.01895009 -0.09882313 -0.7060912 0.020120416 0.13073495 -0.23943034
0.0383742 0.030723475 0.23925792 -0.048816375 -0.97312844 -0.5421941 -0.3864562 -0.4954051
0.4567644 -0.38448718 -0.3668028 -0.20645042 0.38392672 -0.012537434 0.22477655 -0.009370311
0.01563144 0.14949201 0.5004291 -0.011228624 -0.64194673 0.13530271 0.05814571 -0.7787834
00000000: d31a dfbd 1ba1 c9bc 04d2 b3bd f56c a93e
00000010: c42c 0a3f a0ce 87bb de86 3b3c b087 8f3e
00000020: b082 ef3e 0f0d 8c3d 6a1e e53d 581f 86be
00000030: cbea 1ebd 942c 493c 1671 323e 2e4a d63e
00000040: 8b88 64be 77a5 cbbd 454d dbbe 396e 61bf
00000050: 4363 9dbe 1767 70be 17fb ea3d 67a3 a83e
00000060: c5cf 56bf 6fd9 3cbc 9bec b3be 2db5 0abd
00000070: 1aab 833f 8fb1 0abf 364d 38be e09a 53be
00000080: 8a5f fc3c f4da 8e3e e181 b73e 09e5 05be
00000090: 84be 69be 04c2 edbe 318a 28bd 317b f1bd
000000a0: 3750 95be 71e5 f1bd 8b24 3a3d b03a d6bd
000000b0: 54e5 c43c 50bc 0cbc 0ca9 cc3e ce9d 153d
000000c0: 761e ceba eca2 833e a1bc 463f 3ed3 05be
000000d0: 0874 203f 7110 623e 8fe7 183c 3a37 2e3d
000000e0: 8478 8a3e d16b 57bc 4f67 d33e 977a 013d
000000f0: e4de 363e 12b1 293e 7a2c 833e d670 ca3e
00000100: 49a0 583d 70f9 4ebd 3d44 033f bc36 e2bd
00000110: aaa9 16bf 79a0 a33e 2570 2bbe cdd1 ccbd
00000120: e852 1abe 2799 78be 2a30 2fbf 2636 0d3f
00000130: 6b22 e83c f708 d8bb 2496 0bbf a7f9 583e
00000140: d6ce 2abe 1394 113e 973c 6cbe c9c7 94be
00000150: ffc5 77bd ad6d 71bb 0214 bbbd fa00 4ebf
00000160: 2777 82be 6a9c 5e3d 47e8 2fbd 3d46 5c3c
00000170: baf9 7c3d 99b0 e4bd 8ddb 083c 9234 783d
00000180: 78fc 98bd fc50 03bc 7813 03bf e831 c73c
00000190: 379a ccbe 39e1 5bbf db60 3b3f 14e3 d7be
000001a0: 5734 25bf 53a0 f6be 7ada d53d 836e a7be
000001b0: 91b9 3a3a 06c1 e13d 8499 9f3d 8c88 593d
000001c0: e7c6 5abe 2548 193c ef37 f13e 2380 a53e
000001d0: c826 6bbe d359 e03b b73a 473f 1421 71bf
000001e0: 3b34 d7be 614f 003e 7bb5 1f3e 4098 3a3f
000001f0: a98d 0abf f767 d4ba 9270 2ebf 94a0 043f
00000200: 0c15 d13e 5bdc 623e e0a3 1f3d 2d23 07bd
00000210: e907 cebe 65db 65bc 9286 b9bd a49f b6bb
00000220: 662f e93d b3c0 d8be 52e0 2d3f 3de8 5a3d
00000230: 99d4 dfbe 3084 ca3d 1033 22bf ea29 373d
00000240: 64fe e83e 8c42 e6be bc66 bc3e 006c 91be
00000250: ae49 85bc f8b8 96be 9927 3fbd 3262 01bc
00000260: c011 2ebe fb51 49be ed33 9e3b 15cb 773f
00000270: 0f02 0b3f f9aa c63a d469 d13e 2be1 aebe
00000280: 035f 253d 544c da3b fd34 f33d aa87 2c3c
00000290: 5e96 6ebd ad4d c73c 30cb afbd de1e 5c3f
000002a0: de98 ddbb 20ff cd3d a64a 0c3c 0fa7 7f3e
000002b0: f9f4 343e 17d5 1bbe 6710 3b3c 4387 363f
000002c0: 65f6 0e3f 336e 7dbd c2d0 19bc 99b6 513c
000002d0: 187c 383d d2ae b8bc adca 293e d1d8 053f
000002e0: 39f8 38be 9376 1fbd 45ee e6be dbb2 ffbd
000002f0: db81 11be e16b 1d3f 33a8 2e3d c17f 753d
00000300: f023 823c 7a50 bd3b c66e 7bbe 63ff 133f
00000310: 02ab 78bd 51a5 1c3e 168c aa3e 9836 373a
00000320: 4e9f a3be 5414 823e 9373 ffbe c611 ebbc
00000330: 4c06 70bb 6593 51be d9ae eb3c c192 8ebe
00000340: 6fbe 973e c19b 7bbd 1b6c 9bbe 4d84 5a3e
00000350: 7583 93bd 766c 3f3d 108c 28be c98e a03e
00000360: b728 37bf 7af5 48be 2606 fe3e 6ce8 11bf
00000370: 4953 f93d 50c8 4d3f f77d 313d 708b abbb
00000380: 9254 ef39 bee9 f0bd 383d 9b3c c863 cabd
00000390: 65c2 34bf 92d3 a43c 62df 053e 3a2d 75be
000003a0: 442e 1d3d ccaf fb3c 0700 753e aef3 47bd
000003b0: f21e 79bf 3ccd 0abf 96dd c5be bda5 fdbe
000003c0: 06dd e93e 81db c4be 94cd bbbe bd67 53be
000003d0: 0b92 c43e cf69 4dbc d32b 663e ef85 19bc
000003e0: 810d 803c 6f14 193e 1f1c 003f 43f8 37bc
000003f0: 9f56 24bf cb8c 0a3e 322a 6e3d 595e 47bf

FC3.bias f4 [4]
0.23786063 0.08997858 0.1985281 -0.18556978
00000000: bd91 733e b146 b83d f34a 4b3e 0106 3ebe
