results/run003/_actor_net.pt (torch_old, 541483 bytes, 6 tensors)

FC1.weight f4 [400, 33]
00000000: 10fe 943e 6e9a 233f 8675 ed3e 0c6c 51be
00000010: dfd7 523e 1fcd 3fbd b34e d03b b0af 803e
00000020: 824d dabc b1f4 dabd e789 8bba a618 83bd
00000030: c386 063d fe26 48bd 1358 8a3e 6925 f4bd
00000040: 619f abbd dcf1 373e 1f0d a23b 184e c63c
00000050: 6540 bfbd 06e4 85bd 4d20 ce3d e27c 8cbd
00000060: 48e9 3dbc f7fb d23c b677 c3bd 8918 ac3e
00000070: f707 3abe c01c cf3a c6b9 2cbe 20b0 9e3b
00000080: ca4b 443f 98a7 da3e 568f ed3d 7d8a b03e
00000090: bc46 86be ceff 7b3e cfcc 0c3f e86b 8f3e
000000a0: 75d6 c5bd 9320 4d3d daf2 163e c20b 053e
000000b0: f224 9cbe a406 a0bd 1188 41be 851f a93d
000000c0: a40e 1dbe 473b e13e 18bf 693e 7414 b8bd
000000d0: 79ea 7b3d 137a 4c3d 64c5 77be ea5f 923e
000000e0: c6b8 3d3e 3961 e8bd 26a0 2bbe b22e b6be
000000f0: d17f c53e 0952 83be 98a0 91bd a536 52be
00000100: f08b 60bc 11d3 983f f8c8 4cbe a8ec b33e
00000110: 8477 923e 81e5 60be 2181 04be 8327 033f
00000120: f634 203d 9c13 333e 6976 6f3d 9b36 e2bd
00000130: da1d 3bbe ee24 43bd 502a 243e 9f80 06bb
00000140: 5d8e 0f3f 0db8 de3d 107d 1b3f 8fff e63c
00000150: 2a56 52bd 14f8 4d3d b0eb c8be ec05 c7be
00000160: 4f2d a1be 9c00 533e 5e5d bc3e eef8 bfbe
00000170: fd0c 62be b6eb d73e a1ee 1b3e c892 223c
00000180: 959d bbbe 45c0 96bd 80d6 b73e be64 033f
00000190: c4b0 b73e 39c1 153f da06 a1bd 9eea 05be
000001a0: 3ff3 093e 624f 563e 4f0a 64bd 6380 2fbd
000001b0: b7a3 94be 58d2 9d3d d7c4 e23e 14bc 5c3c
000001c0: 3923 8d3d f6b9 0dbe 86c3 9bbe 256b 0f3f
000001d0: b79a 16be aaba b7be b75f 323e d7dd 15bf
000001e0: 4e31 92bd 42c3 4b3d ee16 463e c446 463e
000001f0: b6d8 663e 65d3 7fbe b700 beba 5dc3 a5be
00000200: b826 4f3c c7b3 b03c 6243 2dbd f7ba 7b3f
00000210: 578f 413f d73f 97bc e595 d5be 2338 f93c
00000220: a8e9 083f a442 c2be ced0 abbe c4fc dd3d
00000230: 6909 d53d 925e 61bd 25ff 76be d22d 143e
00000240: 814a 3fbc 7a8b 84be 8798 593e 2aed a7bd
00000250: a806 90be 8f54 963d 169c c3be 7f9a 47bd
00000260: 3a70 70bd ed7c 90be 1ec3 c63b e7fc 83bd
00000270: 7159 c7bd 65c1 eabd e9b4 ebbd 504f 233e
00000280: eded be3e ad79 b83d bedc d03c f098 3fbc
00000290: 3b04 d8be 7f8b 363f f170 f13e 7061 80bc
000002a0: ab22 73be 5363 003f 8dc7 fbbd a8ea 4bbc
000002b0: 0926 c23e c560 9f3d 9e6d 983d e605 1d3e
000002c0: 6c8b e03d 38b9 163d e4fa e83d 289f 14bd
000002d0: 0d39 51bd 79df f13e f233 d7bd 18d2 433d
000002e0: ae2d fabd b841 d1bd 4022 093e c974 f63d
000002f0: ca67 24be 57a2 cebd e7ee 77be 8be8 33be
00000300: ec9a f83e 4b58 aebe 9b46 debd 4419 e7be
00000310: 33e1 acbd 5f3b d6bd d1fe 3e3e 4a59 fbbe
00000320: 910d 8ebe dd4f 0d3e f230 6b3d a86b 183e
00000330: c16f 69bd 0c34 eb3d e19e 2a3e 3593 54bd
00000340: e72f f3bc 05ac 07be a0e5 14be 4b30 363e
00000350: 2e0f 993e 8600 aa3d b240 7e3e 1989 35bd
00000360: 830b 563d d3e0 2cbd 6df1 8d3e 75bd b7bd
00000370: 9a04 03bd 75b7 c2bd 6d41 4e3e a4ea b5bd
00000380: 1031 85be 188a 45be 59a8 063e 3fd6 9b3d
00000390: 112b 2bbc e399 da3d f4dd 0f40 0464 e23d
000003a0: fd2d f83e 5734 1cbf b2b4 44bc b0e0 d53d
000003b0: 61cf e03e e7c5 24be d113 bbbd 85ef 8bbe
000003c0: 49e7 9dbe 5137 31be 584f 81bd bd70 d6bd
000003d0: d19b c03e fb37 283f 397d 80be eb02 583d
000003e0: b3b5 2b3e 5cbf ddbe 52d9 043e e466 0f3e
000003f0: 46d8 9cbd 740f 083e 0d2c 973d 18c0 393e
0.29100084 0.63907516 0.46378726 -0.20451373 0.20590161 -0.046826478 0.006357038 0.2513404
-0.026648287 -0.106912024 -0.0010645956 -0.06401186 0.032843363 -0.04886531 0.2702032 -0.11921198
-0.083800085 0.17963356 0.004945412 0.02420716 -0.09338454 -0.06537633 0.10064755 -0.06859757
-0.011591263 0.025754912 -0.095443174 0.3361247 -0.18167101 0.0015801415 -0.16867742 0.004842773
0.76678145 0.4270599 0.11599605 0.34480658 -0.2622584 0.246093 0.55000013 0.28012013
-0.09660045 0.050079893 0.14741078 0.12992766 -0.30496937 -0.078137666 -0.18899561 0.08257965
-0.15337616 0.43990538 0.22826803 -0.08988276 0.061502907 0.049921107 -0.24196392 0.28588802
0.18527517 -0.11346669 -0.1676031 -0.355825 0.3857408 -0.25648525 -0.07110709 -0.20528658
-0.013705239 1.1939412 -0.19998538 0.35141492 0.28606808 -0.21962549 -0.12939884 0.51232165
0.039113007 0.17487949 0.058462534 -0.110455714 -0.18273106 -0.04764264 0.16031766 -0.0020523441
0.56076604 0.10874949 0.60737705 0.028198032 -0.051351704 0.050285414 -0.39242315 -0.38871706
-0.3147988 0.20605701 0.36789984 -0.37494606 -0.22075267 0.4217202 0.15227748 0.009922691
-0.36643663 -0.07360891 0.35905838 0.51325595 0.3587705 0.5849796 -0.07862635 -0.1307778
0.13471697 0.2092872 -0.055673894 -0.04284705 -0.29031155 0.077061355 0.44290802 0.013472576
0.06891484 -0.1384047 -0.3042261 0.56022865 -0.14707457 -0.358846 0.17419325 -0.58541626
-0.071383104 0.04974676 0.19344684 0.19362932 0.22543606 -0.24982984 -0.0014496063 -0.32375613
0.012643509 0.0215701 -0.04230059 0.9833216 0.75609344 -0.018463058 -0.41715923 0.030422276
0.5348153 -0.37941468 -0.33557743 0.10839227 0.104021855 -0.05502183 -0.24120767 0.14470604
-0.011675478 -0.25887662 0.21249591 -0.08199532 -0.28130078 0.07340347 -0.38205022 -0.048731323
-0.058700778 -0.2822031 0.0060657403 -0.06444722 -0.097338565 -0.11462668 -0.11509115 0.15948224
0.37290898 0.09007583 0.025495883 -0.011694178 -0.42190728 0.71306604 0.4715648 -0.015671462
-0.23743694 0.50151557 -0.12293921 -0.012446083 0.37919644 0.07782129 0.07442783 0.15334281
0.109640926 0.036797732 0.113759786 -0.036284596 -0.0510798 0.4724081 -0.10507955 0.047807783
-0.12215744 -0.10217613 0.13391972 0.12033994 -0.16055217 -0.100895576 -0.24212228 -0.17569177
0.48555696 -0.34051737 -0.10853311 -0.45136464 -0.08441391 -0.10460543 0.18651892 -0.4909156
-0.27744725 0.13799997 0.057419725 0.14884818 -0.056991342 0.114845365 0.1666217 -0.0518982
-0.029685928 -0.13249214 -0.1454072 0.1779186 0.29894394 0.08300881 0.24829367 -0.0443202
0.052257072 -0.042206597 0.27723256 -0.08971683 -0.03198681 -0.09507648 0.20142145 -0.08882645
-0.26013994 -0.1929096 0.13150157 0.076092236 -0.01044728 0.10673883 2.247922 0.11054233
0.48472586 -0.61017364 -0.012005972 0.10443246 0.43908218 -0.16091119 -0.09134639 -0.27331176
-0.3084052 -0.17306258 -0.06313962 -0.10470722 0.37618878 0.6571042 -0.25095537 0.052737158
0.16768532 -0.43310058 0.12973526 0.14004093 -0.076584384 0.13287145 0.07381449 0.18139684

FC1.bias f4 [400]
00000000: f6a9 85be 5bab 70be e9e8 fdbe 51bb 22bc
00000010: 6ab8 13be 30f1 b4be 0328 683e 6a55 09bf
00000020: 6ff4 87be d753 fdba 575a d93c 111e a93d
00000030: 7df3 87be ca3d 18be 2b5e cabd 9bcc dabb
00000040: 81a2 2fbe fd83 1f3d d848 d9be 29c3 08bf
00000050: cca7 92be 2942 bdbe 4979 903d 0794 e4bd
00000060: 4128 9ebe 4a86 ca3d b7d5 253e 960e f3be
00000070: cb5d 6dbd d8d5 e2be b656 0cbe 0b90 f6be
00000080: 27eb aebe 772c 8fbe 9a63 9dbe cc54 6fbe
00000090: ec28 e5bb b92a f0bd 7a4f 12bf c155 fcbe
000000a0: 7435 9ebe de99 f4be 2c5d afbe 196f 3d3d
000000b0: 4996 16be e4da 71be b0df efbe 867e 17bf
000000c0: 0ed9 2dbe 522b 74be c68f 24bd f5c4 15bf
000000d0: f4fc 22bf 8ec3 2ebe 8513 e7be 4b8e 98be
000000e0: 8bcb 11bf 280d 91be a471 7fbe dfa2 8bbe
000000f0: 7eb9 45be 5ef3 d23b 479a 81ba 6f02 d5bd
00000100: d70c 03bf 1c6f 90be 6cbe ab3c 49ab 74be
00000110: 120d c7bc d418 36be 2bfa 96be 1ac8 bbbe
00000120: a481 10be 1993 193e 5a59 eabe df23 a53e
00000130: 8cfc 5abd 3f17 88be c5cc fcbe e88e 84bd
00000140: f3bf d63d 18d4 ddbd ce52 ccbe b539 3fbe
00000150: 0107 46be e2c2 d9be 3246 cfbe 9604 4ebe
00000160: 59f7 45be b5c3 b2be 292b 21bf 7c02 d0be
00000170: eca0 06bf 2824 23be 8da9 0bbe f59c f9be
00000180: d7f7 abbd cd95 d5be 1b37 45be 5315 98be
00000190: e422 d53d 520c 9ebe cd21 89be da85 a2be
000001a0: b3d5 b23b 6c9d 8e3c c25c 40be b420 dfbe
000001b0: de24 95bd b8e1 363e b890 a63c 9543 883e
000001c0: b75a 2dbd 1166 52bf e4df 8fbe b96c aebc
000001d0: cd96 10bf 4d4c a7bd ea4a 40bf 7fbd 8cbe
000001e0: 8731 bbbe 58c6 dcbe 6370 2f3d 9740 d5be
000001f0: 38eb e7be a04d 8bbe b88b e9be 73c5 823e
00000200: 9d45 e2bd 372c afbd 0849 f63d 48db bb3d
00000210: 528f 97be 8d70 0dbf 2621 c9bd 8b0d 4abe
00000220: b1de d2be e5ec cabe 9d13 33bf 49d8 d7be
00000230: 567c 9cbe 2ccd aabe 6956 16bf 2fb0 963d
00000240: 4973 b2be 8060 f0be 94eb c5be 577b 89be
00000250: 9b4d 19bf 7329 0dbe 308c aabe fb40 dfbe
00000260: 927d 88be 4713 bebe d59a 1fbe a7f4 afbe
00000270: 99af 2cbe b383 27be 3cab d7be af48 02bf
00000280: 2fc2 48be 6345 d5be e345 ae3c d3bd c5be
00000290: f82d 60be 0b08 7ebe 035b 2abe 0408 28bd
000002a0: 2ba5 3d3e 6b19 f5be 1d10 fdbe 7d61 83be
000002b0: 7d47 a0be a905 bdbe d486 1fbf 4801 b8be
000002c0: 5f61 24be 0193 19be 5146 43be 5311 23be
000002d0: 3702 003e c0d5 b5be 5797 85bc 1f90 95bd
000002e0: 7c2a 143d 8405 b2be b771 8ebe 722f 58be
000002f0: 72ab 62be 4b1c d4be 98d0 54be 691e 57be
00000300: c671 cfbe 33ee e53c b3c9 6dbe f013 073e
00000310: b815 96be 76fa aebe 1960 0fbe a43e 923c
00000320: 90b0 37be 432d 2ebe 8ce6 043d ef74 81be
00000330: 17d1 65be eed2 323e cb8b c83c 28b2 16be
00000340: 00fb 8439 a1f6 d2bd de43 acbe 4a03 b5be
00000350: d845 dcbe 1fec 1e3d dcd6 533e 422c 64be
00000360: 3690 08bf a86d abbe 9deb ffbe dca1 31bd
00000370: 1c18 30be 0786 8cbd 2953 6abe 89c1 59be
00000380: d041 dfbe e2fe 803e b328 9ebe 4d42 b4bd
00000390: 65a2 25be 1bc2 30be 55fe 123e e23f 8abe
000003a0: 889f febe 888f 87bd b7b1 08bf 5626 6cbe
000003b0: 9fd7 10bf 5a03 23be 2bdd a5be 41d0 c5bd
000003c0: 8b33 d1be f95e a4be 3c78 1e3d 8733 35be
000003d0: a764 fdbe 9897 d9be 97ba 83be 0432 b2be
000003e0: d724 2a3d 4bfd 06bf 6d04 acbd 7df0 cabe
000003f0: 7407 43be d523 043d fdb6 1cbe fb23 0e3e
-0.26106232 -0.23502867 -0.4959176 -0.009932355 -0.14425817 -0.3534026 0.22671513 -0.53645957
-0.26553676 -0.0019327354 0.026532335 0.08257688 -0.26552954 -0.1486732 -0.09881242 -0.006677223
-0.17151834 0.038944233 -0.42438388 -0.5342279 -0.28643644 -0.3696454 0.07054383 -0.111610465
-0.30890086 0.09888895 0.16194807 -0.47472066 -0.057950776 -0.44303775 -0.13704953 -0.4815677
-0.34163782 -0.2796361 -0.30740052 -0.23372191 -0.0069934037 -0.11726899 -0.5715252 -0.49284175
-0.30900156 -0.4777364 -0.34250772 0.04624853 -0.14705767 -0.23618656 -0.46850348 -0.59177434
-0.16977331 -0.2384465 -0.040176176 -0.5850366 -0.63667226 -0.17066786 -0.4513208 -0.2979606
-0.56951207 -0.2833035 -0.24945694 -0.27272698 -0.19309041 0.006437703 -0.0009887897 -0.10400855
-0.5119147 -0.2820977 0.020964824 -0.23893465 -0.024298225 -0.17782909 -0.29487738 -0.36676103
-0.14111954 0.1499752 -0.45771295 0.3225393 -0.053463504 -0.26580235 -0.49374977 -0.0647257
0.1048583 -0.10831469 -0.39906925 -0.18674357 -0.1933861 -0.42531496 -0.40483242 -0.20118937
-0.19332637 -0.34914938 -0.6295648 -0.40626895 -0.525893 -0.15931761 -0.13638897 -0.4875256
-0.08396881 -0.4171585 -0.19259302 -0.2970377 0.104070455 -0.30868775 -0.267836 -0.31742746
0.005457604 0.017409049 -0.18785384 -0.43579638 -0.072824225 0.17859542 0.02033268 0.2661406
-0.04232284 -0.8218699 -0.28100502 -0.021292077 -0.56480104 -0.0816885 -0.7511431 -0.27488324
-0.36561224 -0.43120074 0.04283179 -0.4165084 -0.45296645 -0.2720766 -0.4561441 0.25541267
-0.11048434 -0.08553355 0.12025648 0.09172684 -0.29601532 -0.55249864 -0.09820776 -0.19731729
-0.41185525 -0.3963386 -0.699518 -0.421572 -0.3056361 -0.3335966 -0.587256 0.07357823
-0.3485358 -0.46948624 -0.38656294 -0.26851913 -0.5988404 -0.13785343 -0.3331008 -0.43604264
-0.26658303 -0.37124082 -0.15586407 -0.34366342 -0.1686386 -0.16358833 -0.4212283 -0.50892156
-0.19605325 -0.416545 0.021273559 -0.38621387 -0.21892536 -0.24807756 -0.1663628 -0.04102327
0.18520038 -0.47870955 -0.49426356 -0.25660315 -0.3130454 -0.3691838 -0.62315106 -0.35938478
-0.16052769 -0.14997484 -0.19069792 -0.15924577 0.12500845 -0.3551464 -0.016307516 -0.073028795
0.03617333 -0.34769833 -0.27821133 -0.21111849 -0.22135714 -0.41427836 -0.20782697 -0.21007694
-0.4051649 0.028067684 -0.23221473 0.131912 -0.29313445 -0.34175462 -0.14001502 0.017852135
-0.17938447 -0.17009453 0.03244643 -0.25284526 -0.22443043 0.17463276 0.024480721 -0.14716399
0.00025364012 -0.10300947 -0.3364553 -0.35354072 -0.43022037 0.0387994 0.20687431 -0.22282508
-0.5334505 -0.334821 -0.49984446 -0.04336725 -0.17196697 -0.06861501 -0.22883286 -0.21265234
-0.43604898 0.2519446 -0.30890426 -0.08801708 -0.1617523 -0.17261545 0.14354832 -0.27001864
-0.49731088 -0.06619173 -0.5339617 -0.23061499 -0.5657901 -0.15919247 -0.323953 -0.09658862
-0.40859637 -0.32103708 0.038688883 -0.17695437 -0.49490854 -0.4249847 -0.25728294 -0.34803784
0.04153904 -0.52730244 -0.08399282 -0.39636603 -0.19045812 0.032260735 -0.1530418 0.13880913

FC2.weight f4 [300, 400]
00000000: 13d5 153e 7274 0ebe d672 483d 2686 11bf
00000010: c8f8 c73b 000c fa3e b191 30bf dd01 833e
00000020: 8c18 cdbd d066 89bd 5ad2 02bd d496 593c
00000030: 219e d0bd 655f e73e de6a edbc 1256 623e
00000040: 582d ed3d 705d 0f3e 950d 87be f13a 2e3e
00000050: 9c3a 12bc 04ca 41be f989 c03d cf19 983d
00000060: ad1e 02bf 4cec 95bc 1537 babc b053 c4be
00000070: 3c1d ee3e 9f49 6ebe efb4 99be 9246 8d3e
00000080: 49c4 2bbe 013a 85be f639 233e 54d1 743e
00000090: d392 34bd 71ea aabe 87eb 2a3e 0957 2ebe
000000a0: 464c c53c efb0 d0bb 3c4d 04bf fe72 be3d
000000b0: 5745 6e3d 8744 b4be 86bd 263e 49b1 933e
000000c0: bb19 763e b9c8 753e 809e af3d f254 58bd
000000d0: 777d 053e d018 0a3d fe69 1f3e 37f1 a73e
000000e0: 7cd9 babd e606 25be c12c 43be 2f4b fdbd
000000f0: 9329 773d 36b8 663c b2cf 143d 1cb1 e83d
00000100: 46ed 24be f3de b53e 9c7e ba3e be82 983e
00000110: b429 a4be e7cd 203e 68de cd3d 10f3 11bf
00000120: 1747 c5be 9819 17be 8869 8d3e 039a 30be
00000130: dd8f e93e 0c31 9d3d 88f0 07be 8b3f db3c
00000140: 994f 9fbe 684c f8be ed3d 803c 76ed e33d
00000150: afcd 17be 0724 19bd 86ad ec3d 6210 c5bd
00000160: 5e34 fa3d f68a 103e 1f1a 4e3d c685 04be
00000170: 1a06 f73e 2452 0d3e 723f 5cbe a577 263d
00000180: da75 2e3e 4de3 c33e 61f0 c8bc 5997 d3bd
00000190: 651d 0fbe 7b0a 0b3e 7c10 e0bd a775 cebd
000001a0: d985 debb fd03 c5be 7a7f 0c3d 7da6 a13e
000001b0: 9868 7abd d0ce 01bf d065 cf3d d477 adbe
000001c0: 0894 493e 2efc 99bd 0cf6 e73d ed7a bfbe
000001d0: 7793 94be 551c 843d de88 efbb 8e2a 653e
000001e0: f589 5a3d 2500 893e 7d9b 2ebc 15ac 153e
000001f0: eaea 34be 62a0 61be 36a1 57bd 9841 6d3d
00000200: 62d0 033e 9989 753e fb11 9bbe 2775 8c3d
00000210: 2ee1 ae3d d461 25be f060 c2bd 1f95 fe3d
00000220: affc 85be 903d 9c3d 27f3 923d 260a bdbe
00000230: 973b 863d 7a52 97be 7f6c 003e 84f6 6cbe
00000240: 9edf 2bbf 40f7 143f bb6d 913e 7bb6 f33e
00000250: 155b babd 5273 dc3d 752a a63d fdc0 bebe
00000260: 4d0b 5abf 5f59 fabe 3a1b a33e 34fd 933d
00000270: b1e7 75bd 3ade c6bd 6ce3 aebc c8b4 e13d
00000280: 8bd5 923e 0951 0bbe c2da ad3d 72e8 5abd
00000290: 8d8a f73e da3b 5c3e 1c5f 143e 5b1e 82be
000002a0: bfef 633d 7391 2dbf ee0a 31bd 9ce7 72bc
000002b0: 11dd 8cbe 06dd d2bd 5ebd 7d3e b0d2 2c3e
000002c0: 3577 a23d fab3 87bc 501b 28bf 77e0 073c
000002d0: 8d44 52bd 8033 c83e 438b 883e 0673 dcbe
000002e0: 5e1e 1d3e 83c5 863e 1673 863e a034 26be
000002f0: 1f8c c43d 5bb9 033f b9f1 8a3d 448e ccbd
00000300: dda5 ea3d ae80 d23e ef87 263f 91bb 3cbe
00000310: 63d7 403c e449 79be 1e43 0bbd 4d7b 3fbf
00000320: 1612 86bd a2ad 2d3d 2098 88be 2e21 ce3d
00000330: 6839 9dbe b401 843e 3c80 a5be 870b a0be
00000340: c5f8 10bf 651c 173e 303f 0bbf 4415 09be
00000350: c9f5 6c3d 9f3f 06bf 7adb 8abd 0e3c e43e
00000360: 251c dfbd 589a 6a3e e688 afbc 976c 8cbe
00000370: d842 103e 6091 e7be de88 b53e 38f6 2fbe
00000380: 375c 823e 3f09 22be 6d7a babc 7239 1d3e
00000390: 1691 a8be b8cd 60ba 659c 29be 8008 c73e
000003a0: d5cd f2bd 4ce3 9e3e ae63 8e3e 6558 7d3d
000003b0: 6d00 f6bd 22da b33d ad07 08bf 3186 173e
000003c0: fd36 783e 991e 9abd a91f e9bd 443c b53d
000003d0: dfca a6bd eb22 9d3d abb8 ca3d d6a7 e3be
000003e0: f23d 493e f604 b23c f664 58bd aa01 cfbe
000003f0: ce3f 813e c5dc 01bf 5275 123e ddd7 66bd
0.14632063 -0.13911608 0.04893764 -0.5684532 0.006102655 0.4883728 -0.6897231 0.2558736
-0.100144476 -0.06709063 -0.031938888 0.013280589 -0.10186411 0.45189968 -0.028981622 0.22103146
0.11580914 0.14000487 -0.2637755 0.17014672 -0.008925106 -0.18924719 0.09401316 0.074267976
-0.5082806 -0.018301152 -0.022731343 -0.38345098 0.4650668 -0.23270272 -0.30020854 0.27592903
-0.16774096 -0.26020816 0.15940079 0.23907977 -0.044085335 -0.3338199 0.16691409 -0.17025389
0.024084222 -0.0063687484 -0.5168035 0.09299277 0.058171596 -0.35208532 0.16283235 0.28846195
0.24033253 0.24002351 0.08575153 -0.052815385 0.13036142 0.03371507 0.15567777 0.3280122
-0.09123513 -0.16115913 -0.19060041 -0.12367856 0.060342383 0.014082005 0.036330886 0.11361906
-0.16106138 0.3552166 0.3642472 0.29787248 -0.32063067 0.15703546 0.10052186 -0.5701151
-0.385308 -0.14755857 0.27619576 -0.17246251 0.4561757 0.076753706 -0.13275349 0.026763698
-0.31115416 -0.48495793 0.015654529 0.111292765 -0.14824556 -0.037387874 0.115565345 -0.096222654
0.122170195 0.1411551 0.05031788 -0.12941656 0.48246843 0.13800865 -0.21508577 0.040641446
0.17037144 0.38259354 -0.024528684 -0.10331602 -0.13976057 0.13578217 -0.10940644 -0.10081034
-0.006790858 -0.38479605 0.03430126 0.31572333 -0.061134905 -0.50706196 0.10126841 -0.33880484
0.19685376 -0.075188026 0.113262266 -0.37398472 -0.29018757 0.064507164 -0.007310017 0.22379515
0.053354222 0.26757923 -0.0106571885 0.14616425 -0.17667738 -0.22033837 -0.052643977 0.057923883
0.1287246 0.2397827 -0.30287156 0.068582825 0.08539043 -0.161506 -0.094911456 0.12430786
-0.26169345 0.076289296 0.07175284 -0.36921805 0.065543346 -0.29555112 0.12541388 -0.23140913
-0.6713809 0.58189774 0.2840403 0.4760016 -0.09099404 0.10764183 0.08113567 -0.37256613
-0.85173494 -0.4889631 0.3185671 0.07226029 -0.06003541 -0.09710355 -0.021348678 0.110208094
0.28678545 -0.13605131 0.0848899 -0.053444333 0.48347893 0.21507207 0.14489406 -0.25413784
0.05564856 -0.6780006 -0.043223314 -0.014825728 -0.2751241 -0.10296063 0.24779269 0.16877246
0.07932893 -0.016565312 -0.65666676 0.008293263 -0.051334906 0.3910179 0.26668748 -0.43056506
0.15343615 0.26322564 0.2625968 -0.16231012 0.095970385 0.51454705 0.06784386 -0.099880725
0.11457417 0.411138 0.6505117 -0.18430926 0.011770102 -0.24344593 -0.033999555 -0.7479752
-0.06546418 0.042401917 -0.26678562 0.10064922 -0.3070786 0.2578255 -0.32324398 -0.31258795
-0.5662959 0.14756925 -0.5439329 -0.13387018 0.057851586 -0.5244083 -0.06780143 0.44577068
-0.1089404 0.2291044 -0.021427583 -0.27426597 0.14087999 -0.452281 0.35455984 -0.17183769
0.2546098 -0.1582384 -0.022763455 0.15353945 -0.32923192 -0.00085755764 -0.16563566 0.38873672
-0.118556656 0.3103279 0.27810425 0.061851878 -0.120118 0.0878184 -0.5313671 0.14797284
0.24239726 -0.07525367 -0.11382992 0.088493854 -0.08144163 0.07672676 0.09898504 -0.44463986
0.19652537 0.021730881 -0.05283066 -0.40430957 0.25243992 -0.5072749 0.14302567 -0.056358207

FC2.bias f4 [300]
00000000: 88d9 f5be 2cc4 63be 7829 3cbe ab53 8c3e
00000010: deda 973d 94d6 d7bd fc4a 5ebe 3427 80be
00000020: 0e39 6abe f0c1 20bd c86b b9bd 57bc 9abd
00000030: 9fc6 f1be 5101 fabd 949d 373e 77cd 44bd
00000040: f8a5 88be 868b bfbe fa70 6bbd 3324 ec3d
00000050: eaff 5bbe a202 68bd b086 613c 6788 3e3c
00000060: d587 1ebe e70c ddbd 4146 c2be d26d 08be
00000070: b41d a9be 20de 1cbe ad8e b1bc e24d 0fbe
00000080: 4572 e4bd 8150 64be 63d9 d8bd 0d94 c0bd
00000090: 1fb9 30be 8dd4 413b e88a 6dbe 3098 79bd
000000a0: fc5e 243e 976d 91be ee69 21bd fd68 67be
000000b0: 745c cfbe fb87 15bf 0edc a1bd 3273 1cbe
000000c0: 1da9 7d3d 0daa 87bd c5cc 6b3e c159 d439
000000d0: 99c6 62be aaf9 8cbe 461d e73c c245 09be
000000e0: 535c bcbd 5a1e 9ebd b0ca b3bd ac15 0dbd
000000f0: 7a37 65bd f1cb d6be c438 c7be 7c0b a53e
00000100: b608 9dbd 1e1b 8ebd 3013 853e c73e bebd
00000110: 768c 2cbe 839b ffbd 8bb5 acbc 3026 7e3e
00000120: efb0 7cbe 2625 92bd d19e 193d c87c 18be
00000130: 1f25 9cbe 5b94 54be 1f87 38bd 133d 88be
00000140: 3960 db3d 80ed 0c3e 3151 62bd 0308 f8bd
00000150: 8887 4abd a107 5c3c 3f2e ecbd b22c b9be
00000160: 3e23 10be 493e cf3d 2e46 a0be 5873 94be
00000170: c173 50bd 1263 b4be a7c0 c73d 2f4c 093d
00000180: 1f47 99bd 5121 60be 591b 73be 6684 b23e
00000190: 7fdc 5dbe ddca 8c3d 4999 083e 7d19 c1bd
000001a0: d94d ae3e 62ee afbc 9666 f9bc 5551 923e
000001b0: 8a03 81bd 25fb b13d b272 dbbc 9ca5 133d
000001c0: 2f51 f0be 2e65 8bbe 8ada 4dbe c2ec 65be
000001d0: ffcc 0abe a6ca 81bc e783 fbbd d764 0ebf
000001e0: cc54 d93d 0c0d cebd 902f 7bbd e832 c9bd
000001f0: 92d1 f3bd 37f2 b0be 9323 b9be 682e 6fbe
00000200: 16ec 51be 042a 97bd b7c2 4d3d b6a0 a6be
00000210: dd2f 52be 2a78 78bd 65f2 4ebe 6ee8 f03d
00000220: d588 40bc 8cfa 00be b2d9 2bbe db22 86bd
00000230: 3832 adbe 208b d8bd 83cc 3ebe 0b79 5b3e
00000240: 1de0 163e f906 56be e0ec bdbd 9584 bcbe
00000250: 6fd2 89be c332 e63d b31f 40be 74c3 07bf
00000260: 8829 583e 25ab 823d 5b1f 99bd 1a65 0abe
00000270: d9bf 24bd f083 8e3e 1af9 9dbd fa6e f1bd
00000280: d2a5 3dbe 3348 1ebd 12b8 14be 30ed 823b
00000290: 3b1a 9e3c 897e 80be 52f9 1bbe a3f7 1f3d
000002a0: 4144 11bf 5cdd 05be 1250 15bd 5e91 eabe
000002b0: ade6 83be f8f6 aabe 3481 e0be 3e44 14bd
000002c0: fb34 8bbc 13c8 9bbe 3b42 de3d 293e 3cbd
000002d0: 1d18 f43d 297a 50bb 7f7f b0bd 7f86 d7bd
000002e0: 29da 093d e526 7dbe da11 a0bc 1320 e13c
000002f0: 9099 6bbe 0676 93be d7bf 96bd d853 59bd
00000300: 4bbb 503e 99d0 90bd 23b5 81be 65b4 4cbe
00000310: aa3e 4ebe e32a 05be 6306 27bc 57fc 4c3d
00000320: 45d9 debd 492c debd 5d2b 76bc 8005 d03d
00000330: 3d0d febd 0d98 b2bc 081b 0abe 630c b7be
00000340: ce56 45bd ddc8 113e ddf3 0fbe ccc7 e2be
00000350: f6fb 4a3e 1f85 b13d a579 bebd 3840 c13b
00000360: 0087 03be 4cae b83b 5772 aabe 323d 403e
00000370: 9ffc 213e b520 afbc 6019 e6be 0f05 b0be
00000380: bfa9 22bd a808 7dbe 1e86 d2bd a24c 60bc
00000390: 9f2d 93bd 20ad b1be c820 153e 2828 03bf
000003a0: c425 443d a75c 5cbd 2046 583c aeda b23d
000003b0: 8a60 1abe 9db5 e7bd 1e9d f7bd 4192 6d3d
000003c0: cf5c 5cbd decf cabe ea12 52be dde5 2abc
000003d0: 50f7 27be 3b9b ccbd 87cf d6be 91f3 36be
000003e0: 6016 3cbe a093 72bd b84e d9bd e764 95bd
000003f0: 8ed5 8abe 99d6 40bd a78b 873d b493 6d3c
-0.48017526 -0.22242802 -0.18375194 0.27407584 0.074147925 -0.105389744 -0.21708292 -0.2502991
-0.22873327 -0.039247453 -0.09053761 -0.07555454 -0.47221848 -0.12207282 0.17931205 -0.04804751
-0.26689124 -0.37411135 -0.05748079 0.11530342 -0.21484342 -0.056643136 0.013765022 0.011629201
-0.15481503 -0.107934766 -0.37944224 -0.13323143 -0.33030474 -0.15319109 -0.021674478 -0.13994554
-0.11154608 -0.22296335 -0.10588338 -0.094032384 -0.17258118 0.0029576153 -0.2319752 -0.060936153
0.16051859 -0.28403923 -0.039407663 -0.22598644 -0.40500224 -0.58410615 -0.079033 -0.15278319
0.061928857 -0.066242315 0.23027332 0.00040502663 -0.22146071 -0.2753423 0.0282122 -0.13405517
-0.09197297 -0.07720633 -0.08778894 -0.034444496 -0.05596111 -0.4195247 -0.38910496 0.32235324
-0.07667677 -0.06938766 0.259912 -0.092893176 -0.16850457 -0.124808334 -0.02108266 0.24819255
-0.2467687 -0.07135992 0.037504975 -0.1489135 -0.3049707 -0.20759718 -0.045050737 -0.26609096
0.107117124 0.13762474 -0.05525321 -0.12110903 -0.04944566 0.013429553 -0.11532258 -0.36166912
-0.14075944 0.10119302 -0.31303543 -0.2899425 -0.05089164 -0.35231835 0.097535424 0.03351992
-0.074842684 -0.21887709 -0.23740901 0.34866637 -0.21666144 0.068746306 0.13339724 -0.0942869
0.34043768 -0.021475974 -0.030444425 0.28577676 -0.06299503 0.0869048 -0.02678809 0.03604661
-0.46936938 -0.2722563 -0.20102897 -0.22453597 -0.13554762 -0.0158437 -0.12281018 -0.5562262
0.10611877 -0.10061082 -0.061324656 -0.09824163 -0.11905207 -0.34559795 -0.36159953 -0.23357546
-0.20500216 -0.07381061 0.050234523 -0.32544488 -0.20526071 -0.060661472 -0.20209654 0.117630824
-0.011751373 -0.12595576 -0.16782263 -0.06549617 -0.33827376 -0.10573411 -0.18632703 0.21432893
0.1473393 -0.20901097 -0.09273696 -0.36819902 -0.2691836 0.11240151 -0.18762092 -0.5303261
0.21109593 0.063802995 -0.07476684 -0.1351513 -0.040222023 0.27835035 -0.07713528 -0.11788745
-0.18520287 -0.038643073 -0.14523342 0.00399556 0.019299617 -0.2509654 -0.15231827 0.039054524
-0.5674477 -0.13072723 -0.036453314 -0.4581403 -0.2576193 -0.33391547 -0.43848574 -0.036197893
-0.016993036 -0.30426082 0.10852476 -0.045957718 0.11918662 -0.0031811094 -0.08618068 -0.105237
0.03365532 -0.24721868 -0.019539762 0.027481114 -0.23007798 -0.28800982 -0.07360809 -0.053058475
0.20383947 -0.07071037 -0.2533351 -0.1999069 -0.20141092 -0.13004641 -0.010194394 0.050045338
-0.108812846 -0.108482905 -0.015024987 0.10157299 -0.12404869 -0.02180102 -0.13486874 -0.35751638
-0.048178487 0.1423678 -0.1405787 -0.44293058 0.19822678 0.08667969 -0.093005456 0.005897548
-0.12844467 0.005636012 -0.3329036 0.18773344 0.15819024 -0.0213779 -0.44941235 -0.3437886
-0.039712664 -0.24710333 -0.10279487 -0.013690146 -0.07186436 -0.34702396 0.14563286 -0.5123315
0.04788758 -0.053799298 0.013200313 0.08733116 -0.15075889 -0.11313937 -0.120905146 0.058000807
-0.053799447 -0.39611715 -0.20515028 -0.01043078 -0.16402936 -0.09990545 -0.41955206 -0.1786635
-0.1836791 -0.059222817 -0.106107175 -0.07294636 -0.27116054 -0.047079656 0.066184334 0.014500547

FC3.weight f4 [4, 300]
00000000: f7c9 fdbd 5a91 823e ea2d 49be df13 ea3d
00000010: 526a 0dbf 9899 3a3e 1eaf 5b3f 013d a73f
00000020: 99ea a7be a5e0 cc3e bbe7 88bd 2e6b 923f
00000030: 04c3 653d 0d96 613f 0f55 283f da9a dfbe
00000040: df98 f03e 8a7f 2fbe e7fb 89be 4104 ac3e
00000050: 309f f23d 1852 a7be 22db 873d bdf0 4f3f
00000060: 3f80 d9bd aa2b 4d3d 9f14 9fbb 6950 b3bb
00000070: 0f75 32bf aac8 e63e 2a9f b6bc 747f 043e
00000080: 1304 453b b5f1 9dbe e623 98bd d4ec 31be
00000090: 6d0a 73bd 0df0 6b3d ef58 82be 3c96 36be
000000a0: 942e 36bf 0a62 c5be feac a2bc c6aa b33e
000000b0: 44f7 68bf 7fcb 11bf b6d7 9e3d 4b06 1f3f
000000c0: a5ac 933f fed1 7dbc 4bde 553f 7915 fd3e
000000d0: 3ab1 753d 11a8 c73e 9159 933f 59a9 5b3d
000000e0: 3b8d 783f 4c6f 3bbf 2c0a 973f 0d06 133d
000000f0: 5e70 3c3f b2b0 54bf f55c 5dbe 541c bb3e
00000100: 3613 373f 67f4 503f 5332 a8be 0cdd 583d
00000110: 6631 c33e b7a1 3e3b ccce 203e 79e6 01bf
00000120: cb70 94bd 4876 e0be 9bac 29be e10f 78bf
00000130: 55e3 0b3e e101 c03d fe49 e8bc 61c7 65bf
00000140: cac7 28bf 5cc8 4b3e 6811 943f 9552 653d
00000150: 481e 1b3e 4c36 b33e db07 d4be f25e 3e3e
00000160: 94d2 2c3e 0b1a d8be 6170 81be 77ce 9f3e
00000170: 48b7 adbf b6b8 4c3f 1769 5abf 02e8 033e
00000180: c2b8 26be 7253 7fbe 1ca6 d63d b663 743f
00000190: 068d 1a3f 70dd afbe ad6c ca3e debb 32be
000001a0: 5aff 743f ee81 a4be f4ac 8b3d a6df d73c
000001b0: 8575 19be 4144 5fbf 9375 52bf 8025 ed3e
000001c0: 5d1a aabf b310 34bf ef46 183f 3cb5 163c
000001d0: d5d9 34bd 3d5b 3b3f 4486 bdbe 8dbf 6abf
000001e0: fc5b 77be 7fbc d7be 689c 623f 071e cfbe
000001f0: 21e9 2bbc 2905 33bf 88a9 243f 7bba 083f
00000200: 9fe1 90be 4aef 4bbe a9be d13e e106 5e3e
00000210: 496f 83be 6d26 c4bd cdec 673f b6e5 e13f
00000220: 05bc 00be 20b2 0e3f bf61 9f3e 4fc4 f53d
00000230: 5774 04bf 3457 b7be c7d0 2cbe e043 10bf
00000240: 2aff 7b3f 8442 1b3e 77fb 943e e2e4 e03d
00000250: 1455 f7be 99e9 cbbe e520 63bf 3a55 45be
00000260: 8e16 a7bf 7ebf c83e 6d05 19bd 8e43 49bf
00000270: 23c4 833f 559d 66bf 887c 103f 1550 5cbd
00000280: 5a66 2e3e 9caf 75bd 52bd f53e 401b b73c
00000290: 76d9 9c3e 55dc 6dbf 0d0e 6a3f e4b5 16bf
000002a0: 9f31 35be 01a0 6dbd dda0 b7bc 8e6a fdbe
000002b0: 873b 63be 58f2 0d3f 3458 72bf 7764 debd
000002c0: cd17 f53c bfc2 1a3c 84fe 52bc e300 0bbd
000002d0: e5fc 723e 9929 093f 99ba d5be 0390 f0bd
000002e0: e579 0dbf 418e 933e 6adb 80bd f53a dfbe
000002f0: 18eb 8a3e 71af 623e 6a12 40be 62ba 7f3e
00000300: c834 3ebf 6482 8ebd 353b 413f 7a9d 58bf
00000310: 5fc3 ed3e efed 0cbd 54a7 17be b8cc 0d3f
00000320: 2f73 adbd c19d d23e 8b83 a3be 4c6c d83e
00000330: 08fe b33e 77bf 9f3e 1ae6 c7be da1c 703e
00000340: e9c6 353d 50dd 56bf 4f67 603e 1f15 1a3f
00000350: 458d 19bf 5ec6 a3bf 35cf 393f 3d5a de3d
00000360: 7cbe a2bd dcf7 aebe c96b d6bc b92b f7be
00000370: de92 7e3f 359d 3cbf 44f7 f3be 5e07 be3e
00000380: 978d 183d c82a 38be 9850 92be 3776 f9bd
00000390: 86c2 0dba c177 493f 25eb 14bf 7dd5 8ebd
000003a0: f3f4 02bd 5d32 3e3c 8ebf e13d 0878 db3e
000003b0: c1fc 2c3f 4b5c bc3c 2ae4 c7bc 58f4 b3be
000003c0: 586a 8a3b d870 0ebf f8ea 46bf 5ced df3e
000003d0: 1d84 693f 9c2d 88bf 7574 9d3e 5760 5ebf
000003e0: 8094 ce3d 1b05 0d3e 92b5 00bf bc9e 933e
000003f0: 9e7d f33e 27e9 89bb e31f 0e3d d39b 8c3f
-0.12392037 0.2550152 -0.19646421 0.11429571 -0.55240357 0.18222654 0.8581408 1.3065492
-0.3279617 0.4001514 -0.06684824 1.1438959 0.056094185 0.88119584 0.6575479 -0.4367283
0.4699163 -0.17138496 -0.2695 0.33596995 0.11846769 -0.3267982 0.06633593 0.8122671
-0.10620164 0.05009047 -0.004854753 -0.005472232 -0.6970987 0.4507497 -0.022292692 0.12939245
0.0030062243 -0.3084847 -0.07428722 -0.17375499 -0.059336115 0.057601977 -0.25458476 -0.17830747
-0.7116482 -0.3855136 -0.01985788 0.35091227 -0.910023 -0.56951135 0.07755987 0.6211898
1.1537062 -0.015491961 0.8354232 0.49430445 0.05998347 0.38995412 1.1511708 0.0536283
0.970905 -0.732167 1.1799979 0.035894442 0.7360896 -0.83082116 -0.21617492 0.3654505
0.7151369 0.8162293 -0.32850894 0.05294518 0.38123626 0.0029088089 0.15703887 -0.507423
-0.07248076 -0.4384024 -0.1656975 -0.9689923 0.13660939 0.093753584 -0.028355595 -0.89757353
-0.65929854 0.1990065 1.1567812 0.05598696 0.1514827 0.35002363 -0.41412243 0.18590906
0.16877204 -0.4220737 -0.2528105 0.31212208 -1.3571558 0.79969347 -0.85316604 0.12881473
-0.16281417 -0.24934176 0.104809016 0.95464647 0.60371435 -0.3434863 0.39536038 -0.17454478
0.95702136 -0.32130378 0.068200976 0.026351761 -0.14986236 -0.8721352 -0.82210654 0.46317673
-1.3289295 -0.7033798 0.59483236 0.009198483 -0.044153053 0.73186094 -0.370165 -0.91698533
-0.24156183 -0.42136 0.88519907 -0.40452597 -0.010492594 -0.6992975 0.64321184 0.53409547
-0.28297135 -0.199155 0.40965775 0.21682312 -0.2567084 -0.09577642 0.90595704 1.7648227
-0.12571724 0.5574055 0.31129262 0.120003335 -0.5174002 -0.35808718 -0.16876517 -0.5635357
0.98436224 0.15162092 0.29098102 0.10981156 -0.48307097 -0.39826658 -0.8872207 -0.19270793
-1.3053758 0.39208597 -0.03735869 -0.78618705 1.0294231 -0.9008382 0.5644002 -0.05378731
0.17031232 -0.059981927 0.47996002 0.022351861 0.3063466 -0.92914325 0.9142769 -0.58871293
-0.1769471 -0.05801392 -0.022415573 -0.49495357 -0.22190677 0.5544791 -0.9466584 -0.10859006
0.029918576 0.009445845 -0.012878064 -0.033936393 0.23729284 0.535791 -0.41743925 -0.11746218
-0.5526412 0.2881947 -0.0629185 -0.43599668 0.27132487 0.22137238 -0.18757024 0.24973443
-0.7429929 -0.06958464 0.7548097 -0.8461529 0.4643812 -0.0344066 -0.14809924 0.553905
-0.08469235 0.41135982 -0.31936297 0.42270124 0.35154748 0.31200764 -0.3904274 0.23448506
0.04437915 -0.83931446 0.21914409 0.6018848 -0.59981185 -1.2794912 0.725818 0.10857055
-0.07946488 -0.34173477 -0.026174443 -0.48275545 0.9944285 -0.7367738 -0.47649586 0.37114996
0.037244406 -0.1798507 -0.28577113 -0.12180751 -0.00054077094 0.78698355 -0.581713 -0.069743134
-0.031971883 0.011608687 0.11022864 0.42865014 0.6757317 0.022993227 -0.02440079 -0.35147357
0.004224103 -0.55640936 -0.77702284 0.43735778 0.91217214 -1.0638919 0.30752912 -0.8686575
0.10086918 0.13771479 -0.50277054 0.28832042 0.47556776 -0.004208702 0.03469838 1.0985054

FC3.bias f4 [4]
00000000: 6e37 7f3d 8387 98be e446 803e 5cd2 b6bd
0.06230872 -0.29790887 0.25054085 -0.089268416
