results/run000/_actor_net.pt (torch_old, 541483 bytes, 6 tensors)

FC1.weight f4 [400, 33]
0	0xbea84829	-0.32867554
1	0x3f1a82dd	0.6035593
2	0xbe804674	-0.2505375
3	0xbe52f8d7	-0.20602737
4	0x3db56f7c	0.088591546
5	0xbe3dc213	-0.18531065
6	0x3d8d9ef6	0.06915085
7	0xbd65e790	-0.05612904
8	0xbf27fc57	-0.65619415
9	0xbe642cf4	-0.22282773
10	0x3e708b89	0.23490728
11	0xbe3c79e7	-0.18405877
12	0xbe559dfe	-0.2086105
13	0xbe6642d4	-0.2248643
14	0x3f17e9ea	0.593413
15	0xbdfb29c3	-0.12263825
16	0xbe7c50e1	-0.24640228
17	0x3da455c7	0.08024173
18	0x3dc15bb6	0.094413206
19	0x3e4e732a	0.20161119
20	0x3e126fa4	0.143004
21	0xbe1d290d	-0.15347691
22	0x3e05e9fa	0.13077536
23	0xbde69895	-0.112595715
24	0x3edbdd40	0.42942238
25	0x3e348880	0.17630196
26	0x3d8341cb	0.064090334
27	0x3eb8500a	0.35998565
28	0xbd4ffe30	-0.05077952
29	0xbdaaeedc	-0.0834634
30	0xbe629c7d	-0.22130008
31	0xbc09f290	-0.008419648
32	0xbeb934d7	-0.36173126
33	0x3edf6cde	0.43637747
34	0x3eb7dbd6	0.3590991
35	0x3db4befc	0.0882549
36	0xbe2e9842	-0.17050269
37	0x3e6fb287	0.23407947
38	0x3eb6b573	0.3568531
39	0xbe27da94	-0.16391975
40	0x3e60ee53	0.21965913
41	0xbe0276b4	-0.12740594
42	0xbb591669	-0.003312493
43	0x3d036141	0.03207517
44	0x3d1c63e8	0.038181216
45	0xbdca72ab	-0.098851524
46	0xbef1c1b5	-0.472181
47	0x3e08094b	0.13284795
48	0xbe554fa6	-0.20831165
49	0x3e8e7b84	0.2782861
50	0x3b9438f6	0.004523392
51	0xbe00ca70	-0.12577224
52	0xbd805b02	-0.06267358
53	0x3c9dfbac	0.019285046
54	0xbbfc7948	-0.0077048875
55	0xbdec2a5e	-0.115315184
56	0xbd74c005	-0.059753437
57	0xbd83249f	-0.06403469
58	0xbe242729	-0.16030563
59	0x3e47ed4a	0.19524112
60	0x3e360ab6	0.17777523
61	0xbde3e958	-0.11128491
62	0xbde9a834	-0.11409035
63	0xbea7d3a6	-0.32778662
64	0x3c10b768	0.00883279
65	0xc02e7d70	-2.726406
66	0xbf39b8e3	-0.7254774
67	0x3d4c567c	0.049887165
68	0xbe913821	-0.28363135
69	0xbd88b17e	-0.06674479
70	0xbf19908b	-0.5998618
71	0x3e6f25da	0.23354283
72	0xbe60b7a2	-0.2194505
73	0xbd9cb79d	-0.07652209
74	0x3e989d26	0.29807395
75	0xbe308778	-0.17239177
76	0xbe96788b	-0.29388842
77	0xbe3bc558	-0.18337
78	0x3e892f0d	0.2679371
79	0x3e743eb6	0.23852047
80	0x3e07d95b	0.13266508
81	0x3ecfd0f9	0.4058912
82	0xbd11e985	-0.035623092
83	0xbdb2bc64	-0.08727339
84	0x3e6a5c45	0.2288676
85	0xbe0d1c13	-0.1378024
86	0x3ec53f0b	0.3852466
87	0xbd946bd2	-0.072471276
88	0xbcc50fc4	-0.02405537
89	0x3e26969e	0.16268393
90	0x3e253971	0.16135193
91	0x3e45d6e9	0.19320263
92	0xbea3894c	-0.31940687
93	0x3f01762b	0.50570935
94	0x3dbc982d	0.09208713
95	0x3c362458	0.011117063
96	0xbecb28ec	-0.39679658
97	0xbbef7ab0	-0.0073083267
98	0xbe377c90	-0.1791861
99	0xbed3e46d	-0.41385213
100	0x3e95384f	0.29144523
101	0x3d933ee0	0.07189727
102	0xbce86e93	-0.028373038
103	0xbeb889fe	-0.3604278
104	0x3c946df3	0.018118834
105	0xbd2d44c6	-0.042301916
106	0xbeb58647	-0.35454008
107	0xbe88b2f9	-0.26699045
108	0xbe3ffc9f	-0.18748711
109	0x3d2a2d00	0.04154682
110	0xbe523d48	-0.2053119
111	0xbd98eaa6	-0.07466631
112	0x3ea8fe24	0.33006394
113	0x3dc01b72	0.09380235
114	0xbe0ca6eb	-0.13735549
115	0x3c963786	0.018337023
116	0xbda2278e	-0.07917701
117	0x3ebf9bf5	0.37423673
118	0xbe108686	-0.14113817
119	0x3c94eaad	0.018178308
120	0xbd37d223	-0.044878136
121	0xbdc4cf3b	-0.096098386
122	0x3e373a36	0.178933
123	0xbe140fc8	-0.14459145
124	0xbe54d526	-0.20784435
125	0x3e4853c7	0.19563209
126	0x3f02c2ff	0.5107879
127	0x3ef10f24	0.47081864
128	0x3d054caa	0.032543816
129	0xbf0d1097	-0.5510344
130	0xbdd614b6	-0.10453169
131	0xbf988a57	-1.1917218
132	0x3f0a47a2	0.54015553
133	0x3f037130	0.51344585
134	0x3e6fd41e	0.2342076
135	0xbed5c286	-0.41749972
136	0x3e9f1c82	0.31076437
137	0xbf4357fc	-0.7630613
138	0x3c50fd50	0.012755707
139	0xbd88f5f4	-0.06687537
140	0x3e7f856a	0.24953237
141	0x3e2ccd06	0.16875085
142	0x3db3cc51	0.08779205
143	0x3bf276a0	0.007399395
144	0xbe660c76	-0.22465691
145	0x3cfc0aad	0.03076681
146	0x3ebd1274	0.3692814
147	0x3f0092e7	0.50224155
148	0xbe4b9eba	-0.19884768
149	0xbe08c45b	-0.13356154
150	0xbb7a169c	-0.003816045
151	0x3d9cb234	0.07651177
152	0xbddd3b84	-0.10802367
153	0x3e0b7d34	0.1362198
154	0x3e7b9f65	0.24572523
155	0x3e026e80	0.12737465
156	0xbdbe31e3	-0.09286859
157	0xbdf99e3f	-0.12188386
158	0x3d70fa01	0.058832172
159	0x3f15e74e	0.5855607
160	0xbeace54b	-0.33768687
161	0x3d8f8f3d	0.070097424
162	0xbeeb1632	-0.4591537
163	0x3dc95823	0.09831264
164	0xbe3d953b	-0.18513958
165	0x3e95133b	0.29116234
166	0xbeb92f1b	-0.3616875
167	0xbe444cd7	-0.19169937
168	0xbe6fbaf5	-0.23411162
169	0x3d965324	0.073400766
170	0x3d44cc1c	0.048046216
171	0xbe20ce59	-0.15703715
172	0x3ea8a3c7	0.32937452
173	0x3e00349a	0.12520066
174	0x3d645d09	0.055752788
175	0xbd1ce76e	-0.038306646
176	0x3dc615ab	0.096721016
177	0xbcbf7c22	-0.02337462
178	0xbef438bc	-0.47699535
179	0x3f0330e3	0.5124647
180	0xbe02c728	-0.12771285
181	0xbeaeb80e	-0.34124798
182	0x3e074da1	0.13213207
183	0x3ca1b330	0.019738764
184	0xbe02a4c0	-0.1275816
185	0xbda1ec35	-0.07906381
186	0x3e37b5cd	0.17940445
187	0x3d933f49	0.07189805
188	0xbd5a8ceb	-0.053357046
189	0x3d728737	0.059210982
190	0xbe0dd0d1	-0.13849188
191	0x3e7dbbc8	0.24778664
192	0x3daa58b5	0.08317701
193	0x3e95a1d9	0.29225042
194	0xbd9aca24	-0.075580865
195	0xbe633fe6	-0.22192344
196	0x3dcbed83	0.09957411
197	0xbf968b8c	-1.1761336
198	0xbd2adec9	-0.04171637
199	0x3d9a606b	0.075379215
200	0x3e99d12e	0.30042404
201	0xbddb7bf8	-0.107170045
202	0x3e184c0b	0.14872758
203	0x3c759e4d	0.014991355
204	0x3d2d79cf	0.042352494
205	0xbe13dd0f	-0.14439796
206	0xbc358026	-0.011077916
207	0x3e6d08ce	0.2314789
208	0xbd197c2b	-0.03747193
209	0x3ead9cc8	0.33908677
210	0x3e189c97	0.14903484
211	0x3c11e1ea	0.00890396
212	0x3ee59b89	0.44845226
213	0x3de02801	0.1094513
214	0x3df58643	0.11988499
215	0x3e13aced	0.14421435
216	0xbdbefd63	-0.093256734
217	0x3e16a6ad	0.1471202
218	0xbd3e7c95	-0.04650553
219	0x3dac60b6	0.08416884
220	0x3dc26bc9	0.09493215
221	0xbe7cf7a5	-0.24703844
222	0x3ebe03d5	0.371123
223	0x3c3e8699	0.01162877
224	0x3dbb52f3	0.09146681
225	0x3ecc82c1	0.39943507
226	0x3e083e69	0.13305058
227	0x3d2155b6	0.03938838
228	0xbf15c342	-0.58501065
229	0x3cf49cec	0.029859982
230	0x3e77dcf6	0.24205384
231	0xbe98167d	-0.29704657
232	0x3ea6196e	0.32441276
233	0xbe476f71	-0.19476105
234	0x3dce1710	0.100629926
235	0xbd0ebfea	-0.034850992
236	0xbe46de67	-0.19420777
237	0xbe12fa02	-0.14353183
238	0x3dc080ce	0.093995675
239	0x3d427fdd	0.04748522
240	0xbe65123e	-0.2237024
241	0xbdcfd302	-0.101476684
242	0xbdcc3408	-0.09970862
243	0xbe2df0fb	-0.16986458
244	0x3edd4484	0.43216336
245	0xbd8fb326	-0.07016592
246	0x3e803a93	0.2504469
247	0x3e048d56	0.1294454
248	0x3e2a3ae9	0.16624035
249	0xbe8cbf04	-0.27489483
250	0xbc3b5b8c	-0.011435401
251	0xbdcafe37	-0.09911769
252	0xbe59090f	-0.21194862
253	0xbda0db9c	-0.07854387
254	0x3e3f9883	0.18710522
255	0x3dd081d8	0.10181016

FC1.bias f4 [400]
0	0xbec482cd	-0.38381043
1	0xbe9937ea	-0.29925472
2	0xbe9d1c35	-0.30685583
3	0xbee5c814	-0.4487921
4	0xbee4b553	-0.4466959
5	0xbd22e50f	-0.03976923
6	0xbefd32cb	-0.49452814
7	0xbea40759	-0.32036856
8	0xbecf98b8	-0.40546203
9	0xbe75d0cf	-0.24005435
10	0xbea9c419	-0.33157423
11	0xbe8f24c4	-0.27957737
12	0xbe32d124	-0.17462593
13	0xbeb3aa75	-0.35090986
14	0xbf016c0e	-0.50555503
15	0xbdaf9512	-0.08573355
16	0xbed5777c	-0.41692722
17	0xbe94ac7d	-0.29037848
18	0xbf4828af	-0.7818708
19	0xbe31c75f	-0.1736121
20	0xbdb6524f	-0.08902418
21	0xbe896875	-0.26837507
22	0xbd527e5c	-0.051390037
23	0x3e412c7d	0.18864627
24	0xbd847e81	-0.06469441
25	0xbe52a8fa	-0.20572272
26	0xbe8d7d2e	-0.27634567
27	0xbeaf7be7	-0.34274217
28	0xbec8ec4e	-0.39242786
29	0xbe542803	-0.20718388
30	0xbeb46def	-0.35240123
31	0xbd9cb954	-0.07652536
32	0xbe8c82b8	-0.2744348
33	0xbd81bc02	-0.06334688
34	0xbce7514a	-0.028237004
35	0xbea32bc6	-0.31869334
36	0xbe83b8ad	-0.25726834
37	0xbe1567bd	-0.14590354
38	0xbe9396b1	-0.28825906
39	0xbd07b805	-0.03313448
40	0xbd1b6b04	-0.037943855
41	0xbf2f58d8	-0.6849494
42	0xbe9f5280	-0.3111763
43	0xbee275b9	-0.4423044
44	0xbea4c843	-0.32184038
45	0xbf048f9c	-0.5178163
46	0xbf0cece2	-0.55048954
47	0xbf2e20ab	-0.680186
48	0xbed5eea1	-0.41783622
49	0xbeb9cb82	-0.36288077
50	0xbf1bf486	-0.6091999
51	0x3daa5886	0.08317666
52	0xbe692fb7	-0.22772108
53	0xbe82f64c	-0.25578535
54	0xbef17ab6	-0.47163934
55	0xbe15746b	-0.14595191
56	0xbf2cb46c	-0.674628
57	0xbef486e4	-0.47759163
58	0xbe573966	-0.2101799
59	0xbda7f893	-0.08201709
60	0xbd96400b	-0.07336434
61	0xbf31383f	-0.6922645
62	0xbe781715	-0.24227555
63	0xbf41c6b1	-0.75693804
64	0xbf2e1ff5	-0.6801751
65	0xbe3d7fa9	-0.1850573
66	0x3cc44479	0.023958432
67	0xbe978ffe	-0.29602045
68	0xbd97d56b	-0.07413753
69	0xbf2bc442	-0.6709634
70	0xbe865691	-0.2623792
71	0xbe49984c	-0.19687003
72	0xbe5b969a	-0.21444169
73	0xbe99c411	-0.300324
74	0xbe09e159	-0.1346487
75	0xbedf6f5d	-0.4363965
76	0xbf352e89	-0.7077413
77	0x3d6701df	0.05639827
78	0xbebbbf2b	-0.36669287
79	0xbeab8e7e	-0.3350715
80	0xbeda2620	-0.42607212
81	0x3db64780	0.08900356
82	0xbee9a2f5	-0.4563214
83	0xbdbfbc62	-0.09362103
84	0xbf08f564	-0.53499436
85	0xbc92df81	-0.01792884
86	0xbece0d8e	-0.40244716
87	0xbd1225cc	-0.035680577
88	0xbe5cac9a	-0.21550217
89	0xbeb91749	-0.36150578
90	0xbe91faf0	-0.28511763
91	0xbde1176c	-0.109907955
92	0xbedccfc8	-0.43127275
93	0x3d983522	0.07432009
94	0x3cdfcc38	0.027319059
95	0xbeffa4ac	-0.49930322
96	0xbe9baf29	-0.30407074
97	0xbead905e	-0.33899206
98	0xbf2f189b	-0.6839692
99	0xbe216f6b	-0.15765159
100	0xbd1b3637	-0.0378935
101	0xbf12237f	-0.5708541
102	0x3d3e43a0	0.04645121
103	0xbe5f5406	-0.21809396
104	0xbe878f21	-0.26476386
105	0xbee9ad4d	-0.4564003
106	0xbea7b68f	-0.3275647
107	0xbce9632e	-0.028489675
108	0xbf046bd2	-0.5172702
109	0xbe67d466	-0.22639617
110	0xbe9a85b8	-0.30180144
111	0xbe96c50c	-0.2944721
112	0x3e2c41ba	0.16821948
113	0x3d8ade51	0.06780685
114	0xbe97ff92	-0.29687172
115	0xbe280911	-0.16409709
116	0xbe0161c5	-0.12634952
117	0xbeafea01	-0.34358218
118	0xbebd3c8a	-0.3696025
119	0x3e8864a2	0.26639277
120	0x3dd0ebb8	0.1020121
121	0xbda19e74	-0.07891551
122	0xbf64857a	-0.8926617
123	0xbe9c8347	-0.30568907
124	0x3ca7a8b6	0.02046619
125	0xbeee6e87	-0.465687
126	0xbe9a0dbe	-0.3008861
127	0x3d947327	0.07248526
128	0x3d4f0ea9	0.05055109
129	0xbea2825f	-0.3174009
130	0xbe7e5840	-0.24838352
131	0xbeb4c1f9	-0.3530424
132	0xbf1a3dc4	-0.60250497
133	0x3d1839a6	0.037164353
134	0x3d1aed68	0.037824064
135	0xbf3dd770	-0.74156857
136	0xbdd2282d	-0.10261569
137	0xbe9d7f76	-0.30761307
138	0xbde36bf5	-0.111045755
139	0xbec90da6	-0.39268225
140	0xbee010b2	-0.43762738
141	0xbf182cda	-0.5944344
142	0xbf36261b	-0.71151894
143	0x3cd0cc38	0.025488004
144	0xbf1638ca	-0.58680403
145	0xbf1641d7	-0.58694214
146	0xbe347a4a	-0.17624775
147	0xbee84727	-0.45366785
148	0xbf40bf78	-0.7529216
149	0xbe0adf23	-0.13561682
150	0xbf1b50f5	-0.60670406
151	0xbf00f8d6	-0.50379694
152	0xbe5ea763	-0.2174354
153	0xbe6acd73	-0.22929935
154	0xbda354c4	-0.07975152
155	0xbe3db978	-0.18527782
156	0xbe07450b	-0.13209932
157	0xbf15a88c	-0.5846031
158	0xbeb87946	-0.36030024
159	0x3d9a0b4a	0.075216845
160	0xbf18d946	-0.5970653
161	0xbec045da	-0.37553293
162	0xbef281f8	-0.47364783
163	0xbeba5c6b	-0.36398634
164	0xbedea960	-0.43488598
165	0xbe9d9a84	-0.3078195
166	0xbee3c317	-0.4448478
167	0xbebd72f1	-0.37001756
168	0xbf75d891	-0.9603358
169	0x3e33f5ca	0.1757423
170	0xbe8e0014	-0.27734435
171	0xbd8d8317	-0.06909769
172	0xbf056658	-0.5210929
173	0xbebcb04b	-0.3685325
174	0xbf57dd88	-0.84322405
175	0xbe18253a	-0.14857951
176	0xbe58cdec	-0.21172303
177	0xbf21af51	-0.63158137
178	0xbeb0302a	-0.34411746
179	0xbe6b5722	-0.22982457
180	0xbe8c619e	-0.27418226
181	0xbee0e93f	-0.43927953
182	0x3e53de11	0.2069018
183	0xbeb325cd	-0.34989777
184	0xbe6ef8ff	-0.23337172
185	0xbebc8b39	-0.36824968
186	0x3df829ab	0.121173225
187	0x3d4fac8c	0.050701663
188	0xbeb788b8	-0.35846496
189	0xbf046dfd	-0.5173033
190	0xbeca8e72	-0.39561802
191	0xbe27bcb8	-0.16380584
192	0xbe1a41dc	-0.15064186
193	0xbf14beac	-0.5810344
194	0xbee11370	-0.43960142
195	0xbed9c9dc	-0.4253682
196	0xbe780ea6	-0.24224338
197	0xbf33908c	-0.70142436
198	0xbf165e04	-0.58737206
199	0xbecf862b	-0.4053205
200	0xbe302004	-0.17199713
201	0xbe85ba49	-0.26118687
202	0xbe88bdfe	-0.26707453
203	0xbe9d9cce	-0.30783695
204	0x3e391851	0.18075682
205	0x3eef281d	0.46710292
206	0xbeb16c81	-0.34653094
207	0xbed71a80	-0.42012405
208	0xbe2d595c	-0.16928619
209	0xbedcc3eb	-0.43118224
210	0x3e27d082	0.16388133
211	0xbead5b11	-0.3385854
212	0xbecf9c7c	-0.40549076
213	0xbe942cb7	-0.28940365
214	0xbed474cf	-0.41495368
215	0xbeb670dc	-0.3563298
216	0xbed3567b	-0.41276917
217	0xbee61b71	-0.4494281
218	0x3d348ac9	0.04407767
219	0xbec0388c	-0.37543142
220	0xbd29e6a9	-0.04147974
221	0x3e9af564	0.30265343
222	0xbe834167	-0.25635836
223	0xbf05f21f	-0.5232257
224	0xbed8cfdb	-0.4234608
225	0xbf339d45	-0.7016185
226	0xbd95c903	-0.073137306
227	0xbe676e5f	-0.22600697
228	0xbee21ad7	-0.44161102
229	0xbece56fd	-0.40300742
230	0xbe6e688b	-0.23282067
231	0xbe8c9536	-0.2745759
232	0xbf282906	-0.65687597
233	0xbd628884	-0.055305973
234	0xbee9e8a0	-0.4568529
235	0xbf281bb0	-0.6566725
236	0xbeac186e	-0.33612388
237	0xbec23bb1	-0.37936166
238	0xbe58376d	-0.21114893
239	0xbe942995	-0.28937975
240	0xbe8f2bf9	-0.27963236
241	0xbef32202	-0.47486883
242	0xbe4f6de1	-0.20256759
243	0xbf4bc343	-0.7959482
244	0xbf42fe8b	-0.7616965
245	0xbe9e22b0	-0.3088584
246	0xbed76522	-0.42069346
247	0x3d90bf3e	0.070677266
248	0xbe91fb54	-0.2851206
249	0xbec924fd	-0.39286032
250	0xbdadeb7e	-0.08492182
251	0xbdbb1ba8	-0.091361344
252	0xbee53707	-0.44768545
253	0xbf2ad431	-0.6673003
254	0xbf2d10db	-0.67603844
255	0xbd845997	-0.064624004

FC2.weight f4 [300, 400]
0	0xbcde8745	-0.02716411
1	0x3c15b241	0.009136737
2	0xbe048069	-0.1293961
3	0x3d64494c	0.055733964
4	0x3cd28b12	0.02570108
5	0xbe5c0946	-0.21487913
6	0x3d3f8342	0.046756037
7	0xbc786b8d	-0.015162361
8	0xbd983ef2	-0.07433881
9	0xbd1f9837	-0.038963523
10	0xbdc235be	-0.09482907
11	0xbcc518a0	-0.024059594
12	0xbd6879e1	-0.056756858
13	0xbc7b17ca	-0.015325496
14	0xbcef29f9	-0.029194819
15	0xbcbd0b85	-0.023076782
16	0x3e3a6842	0.18203834
17	0xbd187535	-0.037221152
18	0xbcd8aafe	-0.026448723
19	0xbe203e10	-0.15648675
20	0xbe93e7a6	-0.2888767
21	0xbbed176f	-0.0072354595
22	0xbb0cc622	-0.00214804
23	0x3c779a0b	0.01511241
24	0x3c90eacd	0.017690087
25	0x3c8e0827	0.017337872
26	0xbcb8f4cf	-0.022577671
27	0xbde45eae	-0.11150871
28	0xbd7ff23d	-0.062486876
29	0xbe0115ef	-0.12606023
30	0xbd5bab06	-0.053629898
31	0xbe00bbf2	-0.12571695
32	0xbd7d1aca	-0.061793126
33	0xbdac409e	-0.08410762
34	0xbd8079d9	-0.062732406
35	0xbd9d8b16	-0.07692544
36	0xbe114ea7	-0.1419016
37	0x396535e9	0.00021859225
38	0x3e3e7840	0.18600559
39	0x3daf2c45	0.085533656
40	0xbe29f25f	-0.16596363
41	0x3d713611	0.058889452
42	0xbd83d7b3	-0.06437626
43	0xbe18e570	-0.14931273
44	0xbe1706e9	-0.1474873
45	0xbe63f1b8	-0.22260177
46	0x3c96ca94	0.018407144
47	0xbdda92e5	-0.10672549
48	0xbd8ca8e8	-0.06868154
49	0xbe26be65	-0.16283567
50	0x3d01e2d1	0.03171045
51	0xbe11b708	-0.14229977
52	0xbd18c8aa	-0.037300743
53	0xbe43a8df	-0.19107388
54	0xbd910d4e	-0.07082616
55	0xbcaa6034	-0.020797826
56	0xbdd0bac8	-0.10191876
57	0xbdda4507	-0.10657697
58	0xbd9924e6	-0.07477741
59	0xbc6a4d11	-0.014300601
60	0x3dd6ba2c	0.10484728
61	0x3d797463	0.06090201
62	0x3bb7507e	0.005594312
63	0x3cf56734	0.029956438
64	0xbdafbc5c	-0.085808486
65	0xbd631ea2	-0.055449136
66	0xbdcdb68d	-0.100445844
67	0xbdd5b8e7	-0.10435658
68	0xbd7fad93	-0.062421393
69	0x3dff9e76	0.12481396
70	0x3d37f2eb	0.0449094
71	0xbc821a56	-0.015881699
72	0xbd4695d3	-0.048482727
73	0xbe020cf4	-0.12700254
74	0xbdfad38c	-0.122473806
75	0xbd2c2906	-0.04203131
76	0xbe15d30c	-0.14631289
77	0xbda5d8d1	-0.08097995
78	0xbe327303	-0.17426686
79	0xbc806bca	-0.015676398
80	0xbdcfe9ed	-0.1015204
81	0xbe146603	-0.1449204
82	0xbca269cb	-0.019825837
83	0xbce76ce8	-0.028250173
84	0xbda5b5d9	-0.08091325
85	0xbdad567c	-0.08463761
86	0xbd06ce45	-0.032911558
87	0xbca5888c	-0.020206712
88	0xbda7c179	-0.08191199
89	0xbd8f2e7c	-0.06991288
90	0xbdb6c9fe	-0.08925246
91	0x3d9bc704	0.076063186
92	0xbbc06abe	-0.0058720997
93	0x3d87e971	0.06636322
94	0x3e42c378	0.19019878
95	0x3d5e8313	0.05432422
96	0xbd36cd93	-0.044629645
97	0xbd1a5684	-0.037680164
98	0x3d8bc54b	0.0682474
99	0xbea67e7b	-0.32518372
100	0xbdf74041	-0.12072802
101	0xbcaa8250	-0.020814091
102	0x3cf8c82a	0.030368883
103	0xbe068e49	-0.13140215
104	0xbe3d1722	-0.18465856
105	0xbd896df6	-0.067104265
106	0x3cd8cecc	0.026465796
107	0xbcb936ef	-0.022609202
108	0xbe086d76	-0.13323006
109	0xbdb43a57	-0.0880019
110	0xbcad43ec	-0.021150552
111	0xbbe281c0	-0.00691244
112	0xbd66b042	-0.056320436
113	0xbdf05548	-0.11735016
114	0xbd298e66	-0.041395567
115	0xbd50f092	-0.051010676
116	0xbe37606d	-0.17907877
117	0x3dc30b7d	0.095236756
118	0x3d1381b4	0.036012366
119	0xbe0f7151	-0.1400807
120	0xbce290ff	-0.02765703
121	0xbc896d11	-0.01677564
122	0xbda112d4	-0.07864919
123	0x3da54a7e	0.08070849
124	0xbe228144	-0.15869623
125	0xbd1d21a9	-0.03836218
126	0x3d69ae02	0.057050712
127	0xbde835d4	-0.11338392
128	0xbe3847f4	-0.17996198
129	0xbd8e8617	-0.06959169
130	0xbd987c46	-0.07445578
131	0xbdcce6e8	-0.10004979
132	0xbe16f7cc	-0.14742965
133	0xbc0ac154	-0.008468945
134	0x3d79f95c	0.061028823
135	0xbdc7b78e	-0.09751807
136	0xbda8b69f	-0.08237957
137	0xbdd89bc2	-0.105765834
138	0x3e500b30	0.20316768
139	0xbd90352b	-0.07041391
140	0x3dbc6b70	0.092001796
141	0x3db24604	0.08704761
142	0x3d517b9c	0.051143274
143	0xbd0e2de1	-0.034711722
144	0xbe0315b0	-0.12801242
145	0xbd5c63e3	-0.053806197
146	0xbdbb6dad	-0.09151778
147	0x3d98953c	0.07450339
148	0xbcb8f695	-0.022578517
149	0xbe3f54c3	-0.18684678
150	0x3e1dde6a	0.15416875
151	0x3e2f4fca	0.17120281
152	0xbe59f976	-0.21286568
153	0xbd57a4e0	-0.05264747
154	0xbd21aae7	-0.039469626
155	0xbd65d6b8	-0.056112975
156	0x3da379a5	0.07982186
157	0x3dc03b65	0.093863286
158	0xbd914e50	-0.07095015
159	0xbde0043b	-0.10938307
160	0xbe5cd930	-0.21567225
161	0xbe08ac77	-0.1334704
162	0x3e0c75ab	0.13716762
163	0xbc98dc19	-0.018659638
164	0xbd99d85a	-0.07511969
165	0xbdaae94c	-0.08345279
166	0x3d985ab4	0.07439175
167	0xbe3061ac	-0.17224759
168	0xbd29d491	-0.041462485
169	0xbc986b48	-0.018605843
170	0xbd264819	-0.0405961
171	0xbd0eeaba	-0.03489182
172	0xbdce3676	-0.10068981
173	0xbe5f1c05	-0.21788032
174	0xbde1abb9	-0.110190816
175	0xbd874dbb	-0.06606623
176	0xbd899149	-0.06717164
177	0x3dab7ac1	0.08373023
178	0xbc9b2cda	-0.018942285
179	0xbd6cc22a	-0.057802357
180	0xbd3452f0	-0.044024408
181	0xbdfca09c	-0.12335321
182	0xbc1ef39b	-0.009701635
183	0xbd02b6bd	-0.031912554
184	0xbe460eac	-0.19341534
185	0xbd82afd3	-0.06381192
186	0xbc5c3a11	-0.0134415785
187	0xbd94790d	-0.07249651
188	0x3d46cd96	0.048535906
189	0x3c5db96f	0.01353298
190	0x3c931939	0.017956363
191	0x3cfc03c4	0.030763514
192	0xbdf05c42	-0.11736347
193	0xbd9ff880	-0.078110695
194	0x3d1aa6ee	0.037756853
195	0x3d88bd31	0.066767104
196	0xbe02ea8a	-0.12784782
197	0xbe40ca22	-0.18827108
198	0xbd027c96	-0.031857096
199	0xbd04b562	-0.032399543
200	0x3d6c7fda	0.057739116
201	0x3dd2444a	0.10266931
202	0xbd5449a2	-0.051828034
203	0x3c3037ed	0.010755521
204	0x3ba010a1	0.004884795
205	0xbdd2e051	-0.10296691
206	0xbd0bb934	-0.03411217
207	0x3d8f05f7	0.069835596
208	0xbb2c8a10	-0.002632741
209	0x3c556e70	0.013026819
210	0xbd976e82	-0.073941246
211	0xbe19e223	-0.1502767
212	0xbdd62f4c	-0.1045824
213	0x3c613470	0.013745412
214	0xbe191d04	-0.14952475
215	0xbd39d353	-0.04536755
216	0xbab576c1	-0.0013844596
217	0xbd2dc3c9	-0.042423043
218	0xbe140005	-0.14453132
219	0xbb6ba4e2	-0.0035956432
220	0xbd49760e	-0.04918485
221	0xbe2d49c3	-0.16922669
222	0xbdf594bf	-0.11991262
223	0xbe20af1e	-0.15691802
224	0xbd269c5e	-0.040676467
225	0xbbe72577	-0.0070540267
226	0xbdeaa2a6	-0.11456804
227	0xbd87f668	-0.06638795
228	0x3ded8b0c	0.11598787
229	0xbd0fb5a4	-0.035085335
230	0xbd078c9c	-0.03309308
231	0xbd93e38b	-0.07221135
232	0x3dd61502	0.10453226
233	0xbdb78d4e	-0.089624986
234	0xbe03d4c5	-0.12874134
235	0xbe160b83	-0.14652829
236	0xbd8767d7	-0.06611603
237	0xbddfe519	-0.10932369
238	0xbe292a24	-0.16519982
239	0xbe1510eb	-0.14557235
240	0x3d4e416c	0.05035536
241	0xbdb2b248	-0.08725411
242	0xbe18fd00	-0.14940262
243	0xbd085e68	-0.033293158
244	0xbd9ce29a	-0.07660408
245	0xbe024e1b	-0.12725107
246	0x3c0eb06f	0.008709057
247	0xbc7b21d0	-0.015327886
248	0xbe80c582	-0.25150687
249	0xbd07c0d2	-0.033142872
250	0xbda5ce40	-0.0809598
251	0x3d94a31d	0.07257674
252	0xbcd1db06	-0.025617134
253	0x3cd52228	0.026017264
254	0xbcca7a40	-0.024716496
255	0x3ded5393	0.11588206

FC2.bias f4 [300]
0	0xbd1f15f8	-0.03883931
1	0xbe968140	-0.29395485
2	0x3d8babe8	0.06819898
3	0xbe74bfca	-0.23901287
4	0xbe45df1a	-0.19323388
5	0x3ddbd3c1	0.10733748
6	0xbead774e	-0.33880085
7	0xbdc00a72	-0.09376992
8	0xbdf5f507	-0.12009626
9	0x3d832ed6	0.064054176
10	0x3da6de58	0.081478775
11	0xbe40e665	-0.18837889
12	0xbdad5191	-0.08462823
13	0xbe815ab9	-0.25264528
14	0xbdeb16b9	-0.114789434
15	0xbe0aaf3b	-0.13543408
16	0xbdd34daa	-0.103175476
17	0xbda56e64	-0.08077696
18	0xbd612f03	-0.054976474
19	0xbe8f5aca	-0.27998954
20	0xbee20494	-0.44144118
21	0xbed3ede2	-0.41392428
22	0xbe24d414	-0.16096526
23	0xbdc0b198	-0.09408873
24	0xbf2f75ea	-0.685393
25	0xbe2937fb	-0.16525261
26	0xbd39d98f	-0.045373496
27	0x3c29359c	0.010327723
28	0xbda592ea	-0.08084662
29	0xbdd5f110	-0.1044637
30	0xbda13c8b	-0.07872876
31	0xbe3cef7a	-0.18450728
32	0xbe40d567	-0.18831407
33	0xbe5b63c2	-0.21424773
34	0xbe8929f9	-0.26789835
35	0xbeec3cdc	-0.46140182
36	0xbe80ced5	-0.251578
37	0xbf2a9b42	-0.66643155
38	0xbd00b648	-0.031423837
39	0xbe8b494d	-0.27204362
40	0xbec93e25	-0.39305225
41	0xbc790bec	-0.015200596
42	0x3e06f328	0.13178694
43	0xbe8619b4	-0.26191485
44	0x3d0d9928	0.03456989
45	0xbe1c8195	-0.15283807
46	0xbe6e9620	-0.23299456
47	0xbe7c8a64	-0.24662167
48	0xbe82cc5e	-0.25546545
49	0x3dac8a59	0.08424825
50	0xbeae88f6	-0.34088868
51	0xbd7540c3	-0.059876215
52	0xbc8bd9dc	-0.017071657
53	0xbc8fb5a1	-0.017542662
54	0x3cdc3de1	0.026884975
55	0xbea3f3fa	-0.32022077
56	0xbc205ae7	-0.009787298
57	0xbdba6f2d	-0.09103236
58	0xbc8d7ca0	-0.01727134
59	0xbdbe3ba1	-0.09288717
60	0xbea139a1	-0.3148928
61	0xbe9ced4d	-0.30649796
62	0xbd5272eb	-0.051379126
63	0xbeac52e7	-0.33657
64	0xbeac0e88	-0.33604836
65	0xbe088e61	-0.13335563
66	0x3dc54fcd	0.096343614
67	0xbc60db95	-0.013724227
68	0xbe919fb3	-0.28442153
69	0x3dcaa3c2	0.098945156
70	0xbdc5629b	-0.09637948
71	0xbe9c82a3	-0.30568418
72	0xbd091d65	-0.0334753
73	0xb888d7b5	-6.525164e-05
74	0xbebeb3f7	-0.37246677
75	0xbdd2f205	-0.10300068
76	0xbde2c1fb	-0.11072155
77	0xbdaec5c5	-0.08533815
78	0xbd314467	-0.043278124
79	0xbea6f2e9	-0.326072
80	0x3da10524	0.078623086
81	0xbf170338	-0.58989286
82	0xbea47074	-0.32117045
83	0x3dd3ebe9	0.10347731
84	0xbf04a770	-0.5181799
85	0xbdea6118	-0.114443004
86	0x3e106bc7	0.14103614
87	0x3e3d0dc2	0.1846228
88	0xbe7c5902	-0.24643329
89	0xbe40b8f0	-0.18820548
90	0xbe518f98	-0.20464933
91	0xbf05662c	-0.52109027
92	0xbe77027b	-0.2412204
93	0xbea8d698	-0.32976222
94	0xbe40ac99	-0.18815841
95	0xbda9db3a	-0.08293767
96	0xbdac0d89	-0.08401019
97	0xbde542d4	-0.11194387
98	0xbdf66c06	-0.120323226
99	0xbf202755	-0.62560016
100	0xbc944882	-0.01810098
101	0xbe4aab80	-0.19791985
102	0xbf07ca75	-0.530433
103	0xbede4eb1	-0.43419412
104	0xbd90b00a	-0.07064827
105	0xbeae6623	-0.340623
106	0x3da5fbcb	0.08104666
107	0xbd30aadd	-0.043131698
108	0x3e1dcf38	0.15411079
109	0xbe52427e	-0.20533177
110	0xbcea1873	-0.028576111
111	0xbe8946df	-0.26811883
112	0xbe807938	-0.25092483
113	0x3caab2f7	0.02083729
114	0xbe0f2fcf	-0.13983081
115	0xbd127add	-0.035761703
116	0xbe11bd08	-0.14232266
117	0xbcc6af77	-0.02425359
118	0xbe946a91	-0.28987554
119	0x3ceb77ec	0.028743707
120	0xbcfc31bb	-0.030785432
121	0xbd3be505	-0.045872707
122	0xbed9915c	-0.42493713
123	0xbdacf583	-0.08445265
124	0xbe14434e	-0.144788
125	0xbdcfffc4	-0.10156205
126	0xbdf42f1a	-0.119230464
127	0xbdba9589	-0.09110553
128	0xbef9510b	-0.48694643
129	0x3d5a04bc	0.05322717
130	0xbd2c7d98	-0.042111963
131	0xbe4bec35	-0.19914325
132	0xbd9015d5	-0.07035414
133	0xbe3500d0	-0.17676091
134	0xbec35471	-0.3815036
135	0xbea08f56	-0.31359357
136	0x3c4a83e0	0.012360543
137	0xbd243547	-0.04008987
138	0x3e023fac	0.12719601
139	0xbe8bc5ab	-0.27299246
140	0xbe12509c	-0.14288563
141	0x3c97f59f	0.018549738
142	0xbe04284b	-0.12905996
143	0xbefc3a74	-0.49263346
144	0xbbe1f401	-0.0068955426
145	0xbec0916a	-0.37610942
146	0xbd13badc	-0.036066875
147	0xbeb02bf5	-0.34408537
148	0xbd971f7f	-0.07379054
149	0x3b379e3a	0.0028017894
150	0x3d27c7ed	0.04096215
151	0xbeae2845	-0.34015098
152	0xbe1171f4	-0.14203626
153	0xbde131d7	-0.10995834
154	0xbe0998b1	-0.13437153
155	0xbd6fb6bd	-0.058523882
156	0xbea4908a	-0.32141525
157	0xbe3334d0	-0.17500615
158	0xbdb8b050	-0.09018004
159	0x3d3ef0fe	0.046616547
160	0x3d814c5d	0.06313393
161	0xbcd837c4	-0.026393779
162	0xbe63f615	-0.22261842
163	0x3c1262b0	0.008934662
164	0xbdbc9fac	-0.092101425
165	0xbdec9fcb	-0.115539156
166	0x3ddce679	0.10786147
167	0x3da7590b	0.081712805
168	0xbee27ad1	-0.44234326
169	0xbd9c4962	-0.07631184
170	0xbe313e9c	-0.1730904
171	0xbdccfa72	-0.10008706
172	0xbec20dd1	-0.37901166
173	0xbf26442c	-0.6494777
174	0xbdf5cc70	-0.12001884
175	0xbe6a7810	-0.22897363
176	0xbe0427b6	-0.12905774
177	0x3d25bc7d	0.04046296
178	0x3e356301	0.17713548
179	0x3d3e2570	0.046422422
180	0xbdaf80d5	-0.08569495
181	0xbdd78619	-0.10523624
182	0x3dded2b0	0.10880029
183	0xbd3d17ac	-0.046165153
184	0xbc899a6a	-0.016797263
185	0xbe8157ce	-0.25262302
186	0xbe6cb588	-0.23116124
187	0xbe7da3c7	-0.24769507
188	0xbef81798	-0.484555
189	0xbe0b92f7	-0.13630281
190	0xbc773755	-0.015088876
191	0xbef075a8	-0.46964765
192	0x3ccc70c8	0.024956122
193	0xbdb7e471	-0.089791186
194	0xbeab2639	-0.334276
195	0xbeb89efc	-0.36058795
196	0xbe397ca8	-0.18113959
197	0xbe4b0048	-0.19824326
198	0xbd3df038	-0.04637167
199	0xbf1ddde9	-0.61666733
200	0xbdfd8995	-0.12379757
201	0x3bbf3233	0.0058348416
202	0xbe71c2b7	-0.23609434
203	0x3d9412a9	0.07230122
204	0xbdbac55c	-0.091196746
205	0xbd6e8d38	-0.058240145
206	0x3c9d2dea	0.019186933
207	0xbdfc5df6	-0.12322609
208	0x3df02986	0.1172667
209	0x3db627fe	0.08894347
210	0x3d95e890	0.073197484
211	0xbd6293e3	-0.055316817
212	0xbe1b3762	-0.15157846
213	0xbe4d06fc	-0.20022196
214	0xbeb4179c	-0.35174263
215	0xbe67fc01	-0.22654726
216	0xbf01aaab	-0.50651044
217	0xbe9aed93	-0.3025938
218	0xbe032403	-0.12806706
219	0xbe9f8d7a	-0.31162626
220	0x3e0c3c8a	0.13694969
221	0x3dd8fe37	0.10595363
222	0xbcc88ca3	-0.024481123
223	0xbe807f04	-0.25096905
224	0xbda07487	-0.07834726
225	0x3e1cc1ea	0.15308347
226	0xbd52316f	-0.051316675
227	0xbe4d5f4f	-0.20055889
228	0xbe2ee9fb	-0.17081444
229	0x3df2cbeb	0.118553005
230	0xbe8419a3	-0.2580081
231	0xbd9199a8	-0.07109386
232	0xbed93b01	-0.4242783
233	0x3d9e180a	0.07719429
234	0xbd0b32a6	-0.03398385
235	0xbdaa0651	-0.08301986
236	0xbf1a04b8	-0.6016345
237	0x3e18616d	0.14880915
238	0xbe3b6026	-0.18298396
239	0xbe6591db	-0.2241892
240	0xbe67e704	-0.22646719
241	0xbd81661e	-0.063183054
242	0xbea64aa5	-0.32478824
243	0xbd479c55	-0.048733074
244	0xbd71de33	-0.059049796
245	0xbdb2ee2f	-0.08736836
246	0xbe17f8db	-0.14841025
247	0xbe472a8d	-0.19449826
248	0xbe9bc323	-0.30422315
249	0xbe6378bd	-0.22214027
250	0xbea1a32e	-0.3156981
251	0x3dab7739	0.08372349
252	0xbe5993f6	-0.21247849
253	0xbd2bca3e	-0.04194092
254	0xbe26a59b	-0.16274111
255	0x3c23eb8b	0.010004888

FC3.weight f4 [4, 300]
0	0x3d16869e	0.036749475
1	0x3e2fcb53	0.17167406
2	0xbec373af	-0.38174197
3	0xbef2b02a	-0.47400028
4	0xbdf99c50	-0.12188017
5	0xbe3ec3d8	-0.18629396
6	0x3edd4f22	0.43224436
7	0x3d34e025	0.044159073
8	0x3ef5f0f5	0.48035398
9	0x3e498531	0.19679715
10	0xbe936907	-0.28791067
11	0x3deba6a0	0.115063906
12	0xbeeba379	-0.46023157
13	0x3f25396b	0.6454074
14	0x3e8f98e4	0.28046334
15	0xbd90d20b	-0.070713125
16	0x3d38d0ba	0.045120932
17	0x3c78a4b9	0.015175992
18	0xbe716407	-0.23573314
19	0xbf696c92	-0.9118129
20	0xbeca24dd	-0.3948125
21	0x3eb280f9	0.34864023
22	0xbe450a17	-0.1924213
23	0xbe7ef17b	-0.24896805
24	0x3d93feaf	0.072263114
25	0xbe05442a	-0.13014284
26	0x3f03e72b	0.5152461
27	0x3ec33c9b	0.38132176
28	0xbe76563d	-0.24056335
29	0x3c8c2436	0.01710711
30	0x3db07220	0.086155176
31	0x3e2d573d	0.1692781
32	0x3e6ea218	0.23304021
33	0x3ef859d6	0.4850604
34	0xbe069b8c	-0.13145274
35	0x3eaf43e0	0.34231472
36	0xbe1b7b9a	-0.15183869
37	0x3d69400f	0.056945857
38	0x3d33c0fd	0.04388522
39	0x3d88caca	0.06679304
40	0xbf22d5f5	-0.6360772
41	0x3f323ece	0.6962708
42	0x3f82d094	1.0219903
43	0x3e4ccaa2	0.19999173
44	0x3ea44eb2	0.3209129
45	0x3f1dbb48	0.61613894
46	0xbe9b1854	-0.30291998
47	0x3e00065a	0.12502423
48	0x3e3049f3	0.1721571
49	0x3ef88d49	0.48545292
50	0x3e5aa4ad	0.21351881
51	0xb987cdaa	-0.00025902438
52	0x3da0650a	0.07831772
53	0xbcb90d9c	-0.022589497
54	0xbf053706	-0.52037084
55	0x3e9b4127	0.30323145
56	0xbb45cbd0	-0.0030181296
57	0xbd33526d	-0.04377978
58	0xbeab600a	-0.3347171
59	0x3e0a606c	0.13513345
60	0xbcab75e0	-0.02093023
61	0x3d9392c7	0.0720573
62	0xbf07cd80	-0.53047943
63	0xbf16ec92	-0.5895473
64	0x3e431031	0.19049145
65	0x3eb568c1	0.35431483
66	0xbf296af4	-0.6617882
67	0xbf0b1c7b	-0.5434033
68	0x3f39cb01	0.72575384
69	0xbf581147	-0.84401363
70	0xbee10fea	-0.43957454
71	0xbeb3f341	-0.35146526
72	0x3d03e3a0	0.032199502
73	0x3e2c9a87	0.16855823
74	0x3e380b06	0.17972955
75	0xbea95f0a	-0.33080322
76	0x3c975bf7	0.01847647
77	0xbe729cae	-0.23692581
78	0x3e0ecae8	0.1394459
79	0x3f26efcc	0.6520965
80	0x3d942aa9	0.07234699
81	0xbd2a578c	-0.041587397
82	0x3edba8bf	0.4290218
83	0xbdc371f2	-0.09543218
84	0xbea40679	-0.32036188
85	0x3b956961	0.0045596813
86	0xbe5ecd4d	-0.21758004
87	0x3f4383ff	0.76373285
88	0x3c2d85de	0.010590998
89	0xbebc6cc9	-0.36801746
90	0xbcf15060	-0.029457271
91	0xbdbf5bd7	-0.09343689
92	0xbeee74ca	-0.46573478
93	0xbac54fa7	-0.0015053645
94	0x3f27cfd4	0.65551496
95	0x3ec18ed5	0.37804285
96	0xbf241ae3	-0.64103526
97	0x3e2b17eb	0.16708343
98	0x3d44da2a	0.04805962
99	0x3df7b722	0.12095477
100	0x3c901185	0.017586479
101	0xbb8325c1	-0.0040023034
102	0x3ddf70ce	0.10910188
103	0xbf225747	-0.63414425
104	0x3f1ecaa8	0.6202798
105	0xbe932634	-0.28740084
106	0x3e84727a	0.2586859
107	0x3bae7cee	0.0053249514
108	0x3e977362	0.29580218
109	0xbda767a1	-0.081740625
110	0x3e535275	0.20636924
111	0x3dcae21b	0.099064074
112	0xbf3339a6	-0.7000984
113	0xbf143e31	-0.57907397
114	0xbb43f10e	-0.0029898318
115	0x3de2775d	0.11057923
116	0xbe32174d	-0.17391701
117	0x3deb924a	0.11502512
118	0xbec37fb0	-0.38183355
119	0xbe17f5a2	-0.14839795
120	0xbe9534ec	-0.2914194
121	0x3d1140b8	0.03546211
122	0xbea7d0eb	-0.3277658
123	0xb9e20ce8	-0.00043115695
124	0xbd835ab8	-0.064137876
125	0xbbdfce14	-0.0068299863
126	0x3c7256e0	0.01479122
127	0x3d09c54f	0.033635434
128	0x3dc60164	0.09668234
129	0xbd8da6c3	-0.06916573
130	0x3e4d69bd	0.20059867
131	0xbe9c58c2	-0.30536467
132	0xbdac406f	-0.08410727
133	0xbf10683f	-0.56409067
134	0xbe8168e6	-0.25275344
135	0xbe4e67a6	-0.20156726
136	0x3da2a575	0.07941715
137	0xbd577451	-0.052601162
138	0xbc8e8bee	-0.017400708
139	0x3e48bf88	0.19604313
140	0x3dc1ab98	0.09456557
141	0x3d8b8c2f	0.06813847
142	0xbc6d395b	-0.014479007
143	0xbd4546bc	-0.04816316
144	0x3d88656e	0.06659971
145	0xbd2009d4	-0.039071873
146	0x3d477667	0.0486969
147	0xbf565a4e	-0.83731544
148	0x3d6bba3e	0.05755066
149	0xbc66448f	-0.014054432
150	0x3b775a21	0.003774293
151	0x3e9c92b4	0.30580676
152	0xbdc3bfe3	-0.09558084
153	0xbee799be	-0.45234483
154	0xbdf294dd	-0.118448
155	0x3e434753	0.19070177
156	0xbc966a1c	-0.018361144
157	0x3c5cae8c	0.01346935
158	0x3bb4ed3f	0.005521446
159	0xbea7753b	-0.32706627
160	0xbef11657	-0.47087356
161	0xbc49e7be	-0.012323318
162	0xbcc34fdd	-0.023841793
163	0x3d317eba	0.043333746
164	0xbe5e339a	-0.21699372
165	0xbf0001dc	-0.5000284
166	0xbde0a46c	-0.10968861
167	0xbf2db9cd	-0.67861634
168	0xbdc53acf	-0.096303575
169	0x3d9cf48e	0.076638326
170	0xbee1fa8a	-0.4413646
171	0xbe66cfac	-0.22540158
172	0x3ee33a66	0.44380492
173	0xbb30465d	-0.0026897409
174	0x3e873349	0.26406315
175	0x3e9adbb1	0.30245736
176	0xbe357c9a	-0.17723313
177	0x3e6decc5	0.23234852
178	0x3eebaf46	0.4603216
179	0x3f2fea71	0.68717104
180	0xbe1e164d	-0.15438195
181	0x3d74c771	0.059760515
182	0xba996399	-0.0011702656
183	0x3ec0b636	0.37639016
184	0xbc31bd2c	-0.010848325
185	0x3d69484c	0.056953713
186	0xbccd26ad	-0.025042856
187	0xbd27ba85	-0.040949363
188	0x3e0fa950	0.14029431
189	0x3ed2e3ad	0.41189328
190	0x3c1ffd72	0.009765016
191	0x3f57c66e	0.84287155
192	0xbe8d22bb	-0.2756556
193	0x3c56e881	0.013116957
194	0x3e86a1c3	0.2629529
195	0xbd2a535b	-0.0415834
196	0x3e414c2f	0.18876718
197	0xbec0934a	-0.37612373
198	0x3cbc3e7e	0.022979017
199	0xbe0b3411	-0.1359408
200	0xbbbefcfe	-0.005828499
201	0xbf0ba54d	-0.54549104
202	0x3ea5656d	0.32303944
203	0x3edab555	0.4271647
204	0x3d8fb4e6	0.070169255
205	0xbd0923ae	-0.033481292
206	0x3bdf7078	0.0068188272
207	0xbddc3460	-0.10752177
208	0xbda61abb	-0.08110567
209	0x3f2c18b3	0.6722519
210	0x3f89b730	1.0759029
211	0xbeb6e4cd	-0.35721436
212	0xbeed3127	-0.46326563
213	0x3d4d22d9	0.05008206
214	0x3efd7194	0.49500716
215	0xbe00700a	-0.1254274
216	0xbdcfd6df	-0.10148405
217	0xbe4c827d	-0.19971652
218	0xbefccaa5	-0.49373356
219	0xbdf25ccd	-0.118341066
220	0xbdad13ae	-0.08451019
221	0x3f32e5f9	0.6988216
222	0x3e2a7dc2	0.16649535
223	0x3eb855de	0.3600301
224	0xbe19509c	-0.14972156
225	0x3ec9777b	0.3934897
226	0x3db62e61	0.08895565
227	0xbe9fc6a8	-0.3120625
228	0x3d6e6a79	0.05820701
229	0x3e90b48d	0.2826275
230	0x3e75281e	0.23941085
231	0x3d8f27f7	0.069900446
232	0xbedce0ae	-0.43140167
233	0x3e93b510	0.28849077
234	0x3d565069	0.05232278
235	0x3d68daf1	0.056849424
236	0x3e2f9a38	0.17148674
237	0x3ee1634c	0.4402107
238	0x3e8de761	0.2771559
239	0xbe127bb2	-0.14304999
240	0xbe82801b	-0.25488362
241	0xbe97090c	-0.2949909
242	0x3d35886b	0.04431955
243	0x3f09acb4	0.5377915
244	0xbe848efa	-0.25890332
245	0x3d3dc438	0.046329707
246	0xbd2e3040	-0.042526484
247	0x3cd9e130	0.026596636
248	0x3f0de9ea	0.5543505
249	0xbe07aab5	-0.13248713
250	0xbe38b2ad	-0.1803691
251	0x3cc56406	0.024095546
252	0x3c9127ca	0.017719168
253	0xbf001592	-0.50032914
254	0x3d3adc0d	0.045620013
255	0x3f1e6e99	0.6188751

FC3.bias f4 [4]
0	0xbea92693	-0.33037242
1	0xbc8a7b31	-0.016904445
2	0xbe04045b	-0.12892286
3	0xbe965e1a	-0.2936867
